GRU_Model.pt (torch, 625748 bytes, 10 tensors)

rnn.weight_ih_l0 f4 [384, 15]
00000000: 20da 1c3f c369 58bd c597 a43d 8563 e23e
00000010: d6af 3dbf 4500 163f c591 07bb 6dcf 233f
00000020: 896f 5d3f 220b 903e a9b1 24bf 4d3b 293f
00000030: 3ffd 98bd 3226 d03d 63be 82be ea8d 403e
00000040: 0b02 a93c d81e 693c db62 d63c 4d60 31c0
00000050: ae64 9d3e 7fb9 a83e a15d b1bf 02c6 dc3f
00000060: 49b0 e93f e653 0b3f 2365 6abe 17da 933d
00000070: f967 e1bf 67cc 12c0 07c1 8ebf 944b 923f
00000080: 7353 8fbd 8c6f 533d 8f89 3cc0 bba0 0740
00000090: 924f a13f b3e7 0d40 456e 2340 e1b8 4740
000000a0: a6a3 dc3f a52e bc3f 8cc3 2dbd ecf4 2940
000000b0: 94f3 3c40 9df4 403e c4d4 aa3c 98b3 443c
000000c0: 832d e13c 651f 32c0 f15b 9a3e beba ad3e
000000d0: cc75 b2bf 7cc7 dd3f f8d5 ea3f d9f8 073f
000000e0: 06ae 58be 4843 aa3c 34ab e3bf d966 13c0
000000f0: a205 3e3e 41a8 a13c a0fe d73c 76f0 dc3c
00000100: 966b 2fc0 d3ab 933e 6d55 a93e c6ac afbf
00000110: a50a da3f 47fc e83f 5bb1 0b3f 1e2c 6abe
00000120: 86d8 353d 5ea9 e1bf ff81 10c0 e095 a33f
00000130: 2326 c2be 6603 213d 6afc a4bf 2104 8f40
00000140: c8cc 01c0 943d 01c0 0244 bac0 0eb9 7640
00000150: df26 a840 99c5 49c0 5251 29c0 8910 b4bd
00000160: d0b8 8340 d7bf 9a40 b6ff 94bf 10aa a13f
00000170: 4cc6 ce3c 76d5 743d 1735 3ac0 4839 0a40
00000180: 03bb be3f 462b 0f40 a24e 1640 bb9f 3440
00000190: 7080 b73f b7c0 9a3f 6815 7bbd 7af9 1e40
000001a0: 9c02 3140 47ac 41be c8b7 fb3b e56a 0fbd
000001b0: 4f96 cc3d 5eb6 2f3f 6a4f 713d fe44 b7bc
000001c0: d4b2 183f 5b4a dbbe b792 5cbe 4a2d 9e3e
000001d0: a8b3 fa3e b826 2abc a193 173f 7560 433f
000001e0: 3797 23c0 277c 65bf b0b6 cc3c 9b29 2b3f
000001f0: 592f 7740 523a 5abf 716d 45bf 39bd 2540
00000200: 4e6f b1c0 f8f4 b8c0 3698 b2c0 b643 b9c0
00000210: e1a1 943d cd89 cfc0 ac7a e1c0 d1c2 1cc0
00000220: fa55 623d a033 bfbc 47cb df3b f531 df3f
00000230: daf6 013e cc42 c5bf 6b07 2f40 31ae b7c0
00000240: 02ac c7c0 d2d9 b7c0 7008 c8c0 222e f9bc
00000250: 979c c6c0 7d85 dac0 f772 383e ee21 aa3c
00000260: 66f4 243d 9bf4 ec3c b078 25c0 4070 8b3e
00000270: ad8a a73e 2302 a9bf 90c1 d03f 7ea7 da3f
00000280: 1553 0a3f 002e 6bbe 6705 24bd 94f3 d5bf
00000290: 50a0 0ac0 4e4e 4fbf 14bd 8dbe cc40 bf3c
000002a0: 2a6b b9be cd3f babf 6a7d 633f ec90 1940
000002b0: afc0 f73f e4f5 0040 0e33 1040 5946 0940
000002c0: d691 d63f f861 b4bc b837 1040 bad1 2440
000002d0: a835 e63f ab2a dc3f 5035 d8bc d59d ca3e
000002e0: f2ec c4bf 9c1e d33f cc9b a6bf e1ab 51c0
000002f0: 4630 52bf ba13 2cbe 1d86 5d40 004a f93f
00000300: 8733 8a3d 0430 66c0 77f6 68c0 6ff4 3f3e
00000310: 9d7e af3c 8018 6a3c 493c db3c 9d5a 31c0
00000320: a446 993e 7c4b a83e d409 b1bf 9e25 dd3f
00000330: d1a7 ea3f 01f7 083f 674f 60be fcc4 063d
00000340: 486b e1bf 7bbb 13c0 8dd1 3a3e cdf8 a13c
00000350: 8233 533d 593e ee3c f736 2fc0 f978 8b3e
00000360: 0ce6 b43e 0cb3 b0bf a805 da3f 4691 e63f
00000370: 0e8a 023f e049 4abe e0d8 c4bb 28df e1bf
00000380: 62d8 10c0 bf4c 40bf 1fba 8abf 6bec 9f3d
00000390: b7e8 47be d21d 67bd 5820 58bf 1274 f93e
000003a0: d5d1 a13e 512f 3040 f17d 1f40 abc7 2dc0
000003b0: 1229 acbf 9b80 5fbd 8260 5d40 ff47 4740
000003c0: 09da 413e 6920 ae3c 156c 1dbd ae90 e23c
000003d0: a98f 32c0 ac05 993e 4ded ac3e 519c b2bf
000003e0: 0504 e03f 218c ea3f 35f3 053f 1490 4fbe
000003f0: e405 913c b10d e5bf 9372 13c0 cdb2 3a3e
0.6127033 -0.052835237 0.0803676 0.44216552 -0.7409643 0.5859416 -0.002068625 0.6398838
0.86498314 0.28133494 -0.6433359 0.6610611 -0.07470178 0.10163535 -0.2553588 0.18804136
0.020630857 0.014228545 0.026170185 -2.7715027 0.30740875 0.32954022 -1.3856698 1.7247927
1.8256923 0.54424894 -0.22890143 0.07219332 -1.7609855 -2.2937257 -1.1152657 1.1429315
-0.069983386 0.05162005 -2.945896 2.1191852 1.2602408 2.2172668 2.5536053 3.120659
1.7237442 1.4701735 -0.042422816 2.6555738 2.9523668 0.18843313 0.020853408 0.012005709
0.027487522 -2.7831662 0.3014827 0.33931535 -1.3942199 1.7326503 1.8346548 0.53114086
-0.21160135 0.020784035 -1.7786622 -2.3031523 0.18556836 0.01973355 0.026366532 0.02697013
-2.7409415 0.2884203 0.33072987 -1.3724601 1.7034498 1.8201989 0.545675 -0.22868392
0.044395946 -1.7629812 -2.2579343 1.2780113 -0.3791972 0.03930988 -1.2889531 4.469254
-2.0281239 -2.0193834 -5.8208017 3.8550448 5.254745 -3.1526854 -2.6455884 -0.08792216
4.11631 4.835918 -1.1640537 1.2630024 0.02524104 0.059773885 -2.9094903 2.1597462
1.4900821 2.2370162 2.3485494 2.8222492 1.4336071 1.2090062 -0.06129971 2.4839768
2.7657843 -0.18913375 0.0076818205 -0.035014052 0.099896066 0.68637645 0.058913626 -0.022371765
0.5964787 -0.42830166 -0.21540342 0.30893928 0.48965192 -0.010385208 0.5920964 0.76319057
-2.5561044 -0.89642566 0.024989456 0.6686036 3.8622649 -0.8524524 -0.7712012 2.5896742
-5.544837 -5.7799034 -5.5810804 -5.7895155 0.072574385 -6.4855714 -7.0462246 -2.4493906
0.055257775 -0.023340046 0.0068296525 1.7437121 0.12691823 -1.541101 2.7348278 -5.7400136
-6.239747 -5.7453394 -6.25103 -0.030417506 -6.206615 -6.828795 0.18012606 0.020768132
0.04027214 0.02892523 -2.5854912 0.27234077 0.3272299 -1.3203777 1.630907 1.7082365
0.54033023 -0.22966766 -0.040044215 -1.6714959 -2.1660347 -0.8097886 -0.27683318 0.023346327
-0.36214572 -1.455072 0.8886324 2.3994703 1.9355677 2.015008 2.2531161 2.1449187
1.6763256 -0.022019371 2.2534008 2.5753007 1.7985125 1.7200521 -0.026392609 0.3957354
-1.538481 1.6493716 -1.3016295 -3.2761157 -0.8210491 -0.168044 3.4613106 1.9475708
0.06748109 -3.5966806 -3.640043 0.18745588 0.021422679 0.014288068 0.026762145 -2.7711556
0.29936707 0.3287009 -1.3831124 1.7277105 1.8332464 0.535019 -0.2190529 0.032902703
-1.7610865 -2.308318 0.18244 0.019771958 0.051562794 0.029082464 -2.7377298 0.27240732
0.35331762 -1.3804641 1.7032976 1.8013084 0.50991905 -0.19754744 -0.006007299 -1.7646227
-2.263207 -0.75117105 -1.083805 0.07808765 -0.19522367 -0.056424923 -0.8442435 0.48721367
0.31605402 2.752888 2.4920619 -2.7153118 -1.3450034 -0.054566007 3.4590154 3.1137693
0.1893083 0.021255689 -0.038433153 0.02765688 -2.7900183 0.2988714 0.33774796 -1.3953954
1.7501227 1.8324014 0.5232423 -0.20269805 0.017703004 -1.7894803 -2.303868 0.1823227

rnn.weight_hh_l0 f4 [384, 128]
00000000: 8c6e a03c eb1a 69bd 477e 00bd 00e0 6d3b
00000010: 8833 083d 34ca a03c 00ed 05bb 003f 39ba
00000020: 01b5 8e3d 401f 67bc e091 7bbc 7cfd 0bbd
00000030: 8fa7 b43d dad4 1e3d 5bb3 0ebd babf 213d
00000040: e0b8 06bc 4ee9 603d 5a5b 95bd f357 ac3d
00000050: 009a ab3a 8521 4cbd 30aa fdbc e8fe af3c
00000060: 7fd6 ae3d eda6 9dbd f857 fdbc d0f4 f4bc
00000070: 61b8 92bd 6787 a9bd 284e 3c3c 6667 263d
00000080: 00a4 25bd ff2a 863d e08a 57bb 106a 76bc
00000090: a962 8f3d 00a9 c739 58d1 123c daa3 87bd
000000a0: e36d a53d a2a5 703d 1294 213d 663c 80bd
000000b0: 1a7a 6e3d 8165 8dbd ca62 3e3d ba83 0cbd
000000c0: 40eb 9f3c a309 a13d 4451 a1bc 24d5 8abd
000000d0: bb18 a93d 4ba7 ab3d 09f6 873d 5e15 37bd
000000e0: e079 a5bc fdc5 823d 68e0 b2bd 005d a239
000000f0: fc60 e7bc 2462 a3bd ea2c f6bc c4d2 3fbd
00000100: 7e60 3cbd dcf2 8bbd 0e51 5f3d 0f27 8e3d
00000110: 1094 fe3c d1b1 26bd 9f6a 19bd 325c 7fbd
00000120: 9903 a93d ed8b a6bd 70eb 43bd f0b2 6fbc
00000130: 4717 31bd 1097 93bd 2518 b0bd 5481 ce3c
00000140: 7cfb 8b3c 05e6 b1bd 1043 013d 3493 8cbd
00000150: 1b42 883d ea07 6dbd 4129 a23d 948b 28bd
00000160: f07e 67bd 2c97 b83c 559e b43d 0019 26ba
00000170: 9c88 8dbd 18d3 05bc d0be 91bc ec10 93bd
00000180: fd04 ad3d e0e9 7ebb cdf0 b43d 39e5 9ebd
00000190: c0fc 3cbb d73f 76bd 10f4 023d baac 3b3d
000001a0: 00d6 2d3a c2e1 1e3d 9054 19bc f074 403c
000001b0: 170a a9bd 04c7 883c 0fbc 933d 9ef5 783d
000001c0: cc29 d1bc b0c4 13bd cdf6 1cbd 9ec6 5d3d
000001d0: b879 89bd e0cf a73c 177f 33bd e065 113b
000001e0: 104d 323c 1fe3 3ebd 921b 313d e2c9 7cbd
000001f0: e101 973d edef 813d 61f9 43bd b04b 983b
00000200: c9be 37bd 5439 bc3c 3bbf 993d e72d 25bd
00000210: f53e 19bd 1d0c 56bd a034 cdbb fc37 873c
00000220: 72a8 303d 06a7 623d 1b5d a83d 0022 893c
00000230: 1ba5 a73d 801c beba f837 43bc 3577 9fbd
00000240: 30f5 033c 5335 b3bd 1a80 75bd 6435 98bc
00000250: 7858 50bd 80df 02bc 76d9 333d 08a8 c4bc
00000260: 5160 ad3d b7e0 4cbd 80cf 213c 1074 1c3c
00000270: bcbb ef3c 372e 85bd 0251 383d fdc9 833d
00000280: 7299 743d bae8 093d ca48 54bd 32f6 2a3d
00000290: 84de ca3c b085 d83b 8673 50bd 78c0 3abc
000002a0: 1f96 1dbd 530b 9ebd 5aa1 113d 647b 93bc
000002b0: 72aa 57bd c8b6 15bc ef65 76bd c070 f33a
000002c0: eabb 3bbd dfc9 a53d baa1 453d 0b0d 8d3d
000002d0: e900 a63d 2ea6 6ebd 149f 8fbd a83c 5e3c
000002e0: c008 69bc d932 63bd e8da cd3c 6c0c b1bc
000002f0: 14e2 da3c 7bda 93bd 0342 1abd 2286 253d
00000300: 0699 76bd 21ec ad3d 32c4 a6bd a8ed fc3c
00000310: 7ee4 89bd f8d0 6cbd b830 903c e091 0bbb
00000320: 3d30 76bd 9aa9 703d 4750 873d 0844 5a3c
00000330: b52a 8ebd 40b4 44bc d44c ce3c cb85 95bd
00000340: c399 b1bd e02b 053b 024a 08bd 2ed9 46bd
00000350: 407d 123d 0adf 293d 32d1 6a3d 82b1 96bd
00000360: c0b5 1abc 06f8 773d 0031 42bc 987c 72bc
00000370: f0f7 d9bc 7416 a8bc 5d1c b13d 5033 113d
00000380: 839f 45bd ac48 82bc 0ec1 283d 53ac 0bbd
00000390: c80e 54bc 100b d13c 6755 33bd 30e9 7dbc
000003a0: b84a 10bc 383c 7b3c d6e2 09bd 60ed 1c3c
000003b0: 8c8a 6abd d176 aa3d ef78 62bd c80f 223c
000003c0: 0672 353d b245 4abd 20ad 163c 0072 4639
000003d0: 4597 a73d 2f36 84bd dccf 89bd c723 9d3d
000003e0: f379 9f3d 7e41 663d f5ac aa3d 8c61 39bd
000003f0: 4003 143c 52c7 6e3d 9d23 a53d 49c3 13bd
0.019583963 -0.056910437 -0.031370427 0.0036296844 0.03325227 0.019627668 -0.0020435452 -0.00070665777
0.069681175 -0.014106572 -0.0153546035 -0.03417729 0.08821022 0.03877721 -0.034839015 0.039489485
-0.008222789 0.054909997 -0.072928146 0.084152125 0.001309216 -0.049836654 -0.03096494 0.021483853
0.08537006 -0.07697854 -0.030925736 -0.029901892 -0.07164074 -0.08277779 0.011493243 0.040625952
-0.040439606 0.065511696 -0.0032889172 -0.015039936 0.0700124 0.00038082153 0.008961044 -0.06623049
0.080776 0.05875171 0.03944785 -0.0626152 0.058221914 -0.06904126 0.04648093 -0.03430531
0.019521356 0.07863166 -0.01969207 -0.067789346 0.0825667 0.08381518 0.06638724 -0.04469811
-0.020199716 0.063854195 -0.08734208 0.00030968338 -0.028244488 -0.07977703 -0.030050714 -0.04683186
-0.04599046 -0.06833431 0.05452066 0.069410436 0.031076461 -0.040696923 -0.037455197 -0.062343784
0.08252639 -0.081321575 -0.047831953 -0.014630064 -0.04323509 -0.07206547 -0.08598355 0.025208153
0.01708769 -0.08686451 0.031558096 -0.06864014 0.066532336 -0.057868876 0.07918025 -0.041148737
-0.05651754 0.022533022 0.08819262 -0.0006336123 -0.06910822 -0.008168004 -0.017791182 -0.07180962
0.08448217 -0.0038896725 0.088349916 -0.077585645 -0.0028837174 -0.060119476 0.031971037 0.04581902
0.0006631315 0.03878952 -0.00935854 0.01174663 -0.082538776 0.01669646 0.07213604 0.060781114
-0.025532626 -0.036076248 -0.038321305 0.054144494 -0.06712669 0.020484865 -0.043822374 0.0022185966
0.010882631 -0.04660332 0.043239184 -0.061715968 0.07373405 0.0634459 -0.047845248 0.0046476945
-0.04485968 0.022976555 0.075071774 -0.04032698 -0.037413556 -0.052257646 -0.006262377 0.016506188
0.043129392 0.055335067 0.082208835 0.016739845 0.08185788 -0.0014504343 -0.011915199 -0.07786409
0.008054063 -0.08750405 -0.05993662 -0.018580146 -0.05086562 -0.007987857 0.04390856 -0.024005905
0.084656365 -0.050018992 0.009876132 0.009549156 0.029264323 -0.065029554 0.04499913 0.064350106
0.05971665 0.03366921 -0.05182723 0.041738696 0.024764307 0.0066077337 -0.05089142 -0.011398427
-0.038473245 -0.07717004 0.035554267 -0.018003173 -0.052652784 -0.009137817 -0.060155805 0.0018573031
-0.045833506 0.080951445 0.048249938 0.068872534 0.08105642 -0.05826395 -0.070127636 0.013564266
-0.014223278 -0.055468414 0.025128797 -0.021612369 0.02671913 -0.07219406 -0.03766061 0.040411122
-0.06020453 0.08492304 -0.0814289 0.030875042 -0.067330346 -0.057816476 0.017601356 -0.0021296665
-0.060104597 0.058755495 0.066071086 0.013321884 -0.069417395 -0.012005866 0.025183119 -0.073009096
-0.08671906 0.002032034 -0.033273704 -0.048546962 0.03576398 0.041472472 0.05732841 -0.07358076
-0.009442747 0.060539268 -0.011852503 -0.014800213 -0.026607484 -0.020518519 0.08647988 0.035449326
-0.048247825 -0.015903793 0.041199736 -0.034099888 -0.012942977 0.02551797 -0.043782618 -0.015497491
-0.008806877 0.0153341815 -0.033663593 0.009578079 -0.057261035 0.08323444 -0.055291113 0.009891458
0.044298194 -0.049382873 0.00919655 0.0001892522 0.08183149 -0.06455647 -0.06729099 0.076728396
0.07786932 0.056214802 0.0833377 -0.045259044 0.009033978 0.058295555 0.08063433 -0.03607491

rnn.bias_ih_l0 f4 [384]
00000000: b9b3 43bf 1d83 cb3d 906b 3fc0 54d0 763d
00000010: 3acd 1c3e 6430 a4c0 c973 35c0 5658 57bf
00000020: 5929 a7c0 8cdf bdc0 3dc9 d13d d0a1 dbbf
00000030: 511b 70c0 b794 153e b22c 7c3d 6c2c 4440
00000040: 3069 d63d 41fb e93d fa9e f23d f528 f43d
00000050: 9416 983f 75c5 fd3f 89e4 27bf a038 54c0
00000060: 46e2 c9c0 a7a5 223f 7344 b93d fd15 65c0
00000070: ca56 a5c0 794e 663d f8fd 4dc0 0604 3f40
00000080: 1176 51c0 b277 b9c0 b350 7b3d 7fcf 283e
00000090: df5e 52c0 4988 7cc0 5bca d03d 23ef 963d
000000a0: d00f f73d 6a23 193f 25f4 d13d f3c9 1c3d
000000b0: 98d4 0d3e 30e4 97c0 20cc f43d 7049 c3c0
000000c0: f210 3ec0 ec69 8b40 6f26 923d fd12 893d
000000d0: 9f1d bd3d d2da 0a3e 5306 a73d 0aa0 89c0
000000e0: e718 773d 36f6 f53d 2726 92bf 20f8 c4c0
000000f0: fb2d c6c0 27c9 5f3d 42e5 91bf 8ad7 fa3d
00000100: 0402 42c0 d9dd 913e d979 7ac0 ac35 46c0
00000110: c261 8dc0 bd76 1bc0 7486 4940 b00c 0cc0
00000120: e9aa eb3d 8a12 c9be 6c9b 953d e96b 74c0
00000130: e628 243e 1c26 193f be97 153d feea 0cc0
00000140: 3e1e c9c0 3076 20bf 7667 983d ef01 bfc0
00000150: 047e 0f3e a345 233e 58c8 1a3e 9a5f 40c0
00000160: 7ed9 95be 1fcf 673e 8536 d53d c9b6 c5c0
00000170: ff18 d3c0 4e3f c3c0 dd5f ae3d 3c8c 1e3e
00000180: 858f 6940 9f6c 103e 4730 033e d855 e9bf
00000190: 5d01 80c0 e942 43c0 fc31 273e 89aa 1540
000001a0: 97d1 e23d d8ae 88bf 9671 6ac0 5a81 213e
000001b0: 36f9 623d f64b bd3d 8507 5ac0 cdb7 1e3e
000001c0: 6e97 4f40 4c51 e23d 95e0 23bf 68b4 123e
000001d0: e060 9b3d 128c c23d 8633 d73d 4bef 463d
000001e0: bf84 bebf d655 5d3d de04 df3d 21e9 cfc0
000001f0: 6e34 7b3d 1918 123e c0a0 1b3d 3fb7 193e
00000200: b0ef 6e40 6d44 a1bd d5bf 8c3c 884b 053b
00000210: 5e5f fb3c 5343 853d d768 163d 5ff7 eac0
00000220: 078d 18bd 060d fbbb a0ae acbc 76c9 9a3b
00000230: 5c79 eec0 7b66 66bd 8917 8ebc 54a3 8d3c
00000240: 12c2 423d ee73 943d 1194 9bbd 7352 413d
00000250: 59b5 0d40 f67c 4b3a 4e5a f13e 76cf 213c
00000260: a213 c4bb ad02 85bc 869b 67bd f5a5 bbbc
00000270: bf76 923c c622 37bc aa74 573d 64af 033d
00000280: 4f04 44bf daf2 ec3b 8c08 27bc 452d 70bd
00000290: 931b 17bd ba76 45bd 5820 003d b055 5bbb
000002a0: 6a0d b33c 4fc3 a0bc 93a0 0d3d 4a28 feba
000002b0: 95b0 a43c 6cf4 2f3d 85e2 21bd ebf2 08bd
000002c0: 4783 a73f d48a 20bd 8f96 62bc d80e 28bd
000002d0: 04e4 b0bc 90bf f23c 5c57 2f3c 5acd 8c3a
000002e0: 38ae 3dbc 6fef 913b 96e2 0d3f ca93 8f3d
000002f0: c3ad d33a 399d 003d febe 62bd c13c 2b3d
00000300: 69f9 c6c0 08af 33c0 14c0 ab40 4804 8abd
00000310: 3af6 85bb 8348 483d a6e2 a03e 1812 573e
00000320: 839d 36bb fe24 d03d b566 583a a0a6 b9bc
00000330: a131 c43c 307e 2bbf a856 ac3b 1053 1dbd
00000340: 369b 26bd 528b 3940 a509 2db9 1c10 1abd
00000350: e914 9f3d 1fdd 6f3d 636f 513c fee6 abbc
00000360: abc6 df3c 84bb 8a3e 0975 263d 11b5 ebbc
00000370: ffbf 413d 7b6c fdbc c623 b73b be43 893d
00000380: c18f ab3e 0b38 813d 4872 023d f6e0 5a3f
00000390: 3130 ca3c a37a 6b3d 7cdb cc3c 0f47 39bd
000003a0: f593 0e3d 826c 9f40 2b8e 1cbc 8b6c 86bc
000003b0: 7e20 48bc a4ee 67ba 4da3 783d 6054 2b3c
000003c0: 0161 94be 6e08 c6bc 2be4 d23f e489 dfbc
000003d0: 41b5 bd3b d1a5 6d3d e323 3fbd ca58 4c3b
000003e0: 690c 453c b6a5 2dbd 44f0 1d3d 74da 71bc
000003f0: 4443 283d 3344 9dbc 95f8 35bd e3f9 9cbb
-0.7644611 0.09937117 -2.99094 0.06025727 0.15312663 -5.130907 -2.835192 -0.84119165
-5.2237973 -5.9335384 0.10243461 -1.7158756 -3.7516673 0.14607511 0.061566062 3.0652113
0.10469282 0.11424876 0.118467286 0.119218744 1.188189 1.9825884 -0.6558309 -3.315956
-6.3088713 0.63534015 0.09046259 -3.579467 -5.1668444 0.05622718 -3.218626 2.9846206
-3.2728312 -5.7958612 0.061356258 0.16485403 -3.2870405 -3.9458182 0.10194846 0.073698305
0.12063563 0.5981966 0.10251645 0.03827853 0.1385063 -4.746605 0.11952996 -6.1027145
-2.9697843 4.35668 0.07136237 0.06693075 0.092341654 0.13560036 0.08155503 -4.300786
0.060326483 0.12009852 -1.1417893 -6.1552887 -6.193113 0.054635193 -1.1398089 0.12248142
-3.031373 0.2848957 -3.913687 -3.0970259 -4.4181833 -2.4291222 3.1488314 -2.1882744
0.11507208 -0.39271957 0.07305035 -3.8190863 0.16031227 0.59823775 0.036521666 -2.2018428
-6.2849417 -0.6268034 0.074416086 -5.968986 0.14012915 0.15944533 0.15115488 -3.005835
-0.29267496 0.22637604 0.104107894 -6.1785626 -6.5968013 -6.1014776 0.08514378 0.15483183
3.6493847 0.14103936 0.12811385 -1.8229322 -4.0001664 -3.0509589 0.16327661 2.3385336
0.11075132 -1.0678358 -3.6631827 0.15772 0.055413447 0.09243004 -3.406709 0.15499802
3.2436175 0.110506624 -0.6401456 0.14326632 0.07586837 0.094993725 0.10507874 0.04856805
-1.4884261 0.054036938 0.108896 -6.497208 0.061329298 0.14267005 0.0379951 0.15011309
3.7333794 -0.07874379 0.017181316 0.002033921 0.030685123 0.06506982 0.036721077 -7.3426967
-0.03724387 -0.0076614646 -0.021079361 0.004723723 -7.4523144 -0.056250077 -0.017345207 0.017289795
0.04754836 0.07248674 -0.07596601 0.04719777 2.2141936 0.0007762456 0.4713921 0.009876123
-0.0059837857 -0.016236627 -0.056544803 -0.022906283 0.017878888 -0.011177724 0.052601494 0.032149687
-0.76569074 0.0072310986 -0.010194909 -0.058636922 -0.03689153 -0.04820893 0.031280845 -0.0033467822
0.021856982 -0.01962438 0.034576964 -0.0019390669 0.020103732 0.04295771 -0.039522666 -0.03343479
1.3086938 -0.039194897 -0.013829841 -0.04102978 -0.021593101 0.02963236 0.01070198 0.0010742352
-0.0115771815 0.0044535915 0.5542387 0.070106104 0.0016149807 0.03139994 -0.055357926 0.041805986
-6.2179456 -2.807558 5.367197 -0.06739098 -0.0040881904 0.048897278 0.3142292 0.21002996
-0.002786488 0.10163306 0.00082550506 -0.02266246 0.023949446 -0.6698942 0.0052593537 -0.038409293
-0.040675364 2.8991284 -0.00016502159 -0.03761302 0.0776766 0.058560487 0.012782904 -0.02098417
0.027316412 0.27096188 0.040638957 -0.028772863 0.047302242 -0.030935517 0.0055889813 0.06702374
0.33508113 0.063095175 0.03184727 0.85499513 0.024681183 0.057490002 0.025007002 -0.045233782
0.03480907 4.9819956 -0.00955538 -0.01640918 -0.012214778 -0.0008847511 0.06070261 0.010457128
-0.28980258 -0.024173941 1.6475881 -0.027287431 0.0057894294 0.058019463 -0.046665084 0.0031180852
0.012026885 -0.042394362 0.038559213 -0.014761556 0.041079774 -0.019197559 -0.04442652 -0.004790531

rnn.bias_hh_l0 f4 [384]
00000000: f9ca 43bf 1919 d13d aaa8 48c0 1eb0 0d3e
00000010: c2fb 493d 3115 a1c0 b13b 36c0 007f 47bf
00000020: 8144 a7c0 ac06 c0c0 4950 083e 2cf1 ebbf
00000030: a5c1 71c0 8d56 593d c11d 0c3e 4e09 4640
00000040: aa50 bd3d b9a9 ad3d 2c87 a53d 778c ac3d
00000050: 225a 9b3f a931 ef3f 5aa7 01bf 2c71 56c0
00000060: 22ee c8c0 f317 2c3f 451e c33d c35a 63c0
00000070: 155a a2c0 4386 103e 82b1 4ec0 c420 3b40
00000080: c32b 54c0 3e82 b9c0 2e84 123e 54d2 8c3d
00000090: 960e 52c0 03d5 7bc0 4584 c83d 97c8 263e
000000a0: c8c2 ee3d ec15 1e3f 4ed8 bc3d e421 253e
000000b0: f07a 7c3d c170 9bc0 aa6e a53d 16a6 c5c0
000000c0: 7cd0 47c0 df35 8d40 1fae 043e 56a6 093e
000000d0: f525 e43d e4af 993d f46d f23d 4a03 8cc0
000000e0: 7fb8 113e af2f aa3d b52b 99bf 5c9e c8c0
000000f0: 8fa3 c5c0 f725 163e d8a3 83bf 2697 9d3d
00000100: 2410 43c0 3295 ac3e 9741 80c0 3347 4dc0
00000110: 4c2f 8dc0 7d10 1fc0 82bb 3f40 9ec3 13c0
00000120: 8c95 f13d 9ce7 9cbe de30 003e 48bb 77c0
00000130: 857e a03d 3e05 253f 6b58 293e ae3a 0cc0
00000140: 74af c9c0 161b 09bf 760b 053e b3c6 bec0
00000150: ffed 6b3d 1aae 273d 61ac 733d 7e73 42c0
00000160: 6a88 73be 554f 0c3e d1d9 be3d f94c c7c0
00000170: cdf5 d2c0 f003 c1c0 f34b ec3d d700 a73d
00000180: 8b28 6a40 d5da 5f3d 36d0 983d 55cc e5bf
00000190: 6126 80c0 97c8 41c0 9262 1e3d b54f 0b40
000001a0: 1444 b83d c3db 76bf 044e 6dc0 5e48 413d
000001b0: bd5b 153e db14 d63d 8fd8 62c0 dcd1 2f3d
000001c0: df91 4d40 96c9 c83d f596 15bf 34d9 8a3d
000001d0: 76db fe3d 1261 d33d 4687 c53d a087 213e
000001e0: 1542 b8bf 6316 1b3e 502e b53d f3b6 cec0
000001f0: 0187 123e 4718 c33d 5c21 253e 88f1 4c3d
00000200: d326 7640 7dad a13d 73c6 8dbc cc19 05bb
00000210: 6835 fdbc 6343 85bd a775 13bd f84b eac0
00000220: e966 1a3d c614 f63b 36af ac3c f8d3 b6bb
00000230: 60de ebc0 7b66 663d 4f1b 8e3c 0c03 93bc
00000240: 16c2 42bd ee73 94bd 0f94 9b3d 6b52 41bd
00000250: c9ac 0f40 6029 6aba 3f50 073f 6cad 2ebc
00000260: 884d ca3b e604 863c 869b 673d f5a5 bb3c
00000270: a15c 8cbc c622 373c e40b 58bd 63af 03bd
00000280: 0e7d 2cbf d6f2 ecbb 8c08 273c 0f9a 673d
00000290: 7d1b 173d ba76 453d 57d0 fcbc ec54 5b3b
000002a0: ba82 b1bc 2dbe a23c cba4 0dbd 7028 fe3a
000002b0: 63dd a4bc 70f4 2fbd 85e2 213d 4ce6 083d
000002c0: 293e a93f 7297 203d c9b2 693c 7ee2 273d
000002d0: b2ea b03c 8fbf f2bc 0c1b 2fbc f0a5 0cba
000002e0: e0f9 3e3c 1af2 91bb aeaa f93e e492 8fbd
000002f0: 178f d3ba 62a5 00bd 02ca 623d c73c 2bbd
00000300: 67a1 c2c0 461b 37c0 9a7b ab40 5404 8a3d
00000310: 3af6 853b 8348 48bd 9c90 b73e 35d6 e33d
00000320: 45a6 363b 157c 4fbb a766 58ba 884d b93c
00000330: a131 c4bc 5cf5 1fbf 62ae b4bb 42be 1d3d
00000340: 369b 263d 2f3b 3a40 6f0c 0739 8611 1a3d
00000350: f710 9fbd 2fdd 6fbd 89b6 3cbc f2e6 ab3c
00000360: 15e8 ecbc 4050 3f3e 3575 26bd bd58 eb3c
00000370: ffbf 41bd 7b6c fd3c de23 b7bb d4f4 8bbd
00000380: 7471 c13e 8936 81bd 3472 02bd ef5d 353f
00000390: 3130 cabc 7f04 6abd c2ce ccbc ad23 353d
000003a0: 1346 0ebd 43e1 a040 2b8e 1c3c fb5e 813c
000003b0: 7c20 483c 426e 85b9 5da5 78bd 12a6 2bbc
000003c0: c11f 51be 44e6 c53c 2c1f d83f e489 df3c
000003d0: 3fb6 bdbb 472f 6bbd 95f6 3e3d ca58 4cbb
000003e0: 2508 45bc b6a5 2d3d ba4c 1dbd 75da 713c
000003f0: 220a 29bd fd21 9d3c 635c 383d a132 993b
-0.76481587 0.10209865 -3.1352944 0.13836715 0.04931236 -5.033837 -2.8473933 -0.7792816
-5.2271123 -6.0008144 0.13311876 -1.8432975 -3.7774441 0.053061057 0.13683225 3.094318
0.09243901 0.08479638 0.080824226 0.08425229 1.2136881 1.868703 -0.50645983 -3.3506575
-6.279069 0.67224044 0.09527258 -3.5524147 -5.0734963 0.14113717 -3.2295842 2.9238749
-3.315171 -5.7971487 0.14308235 0.068760544 -3.2821403 -3.9348762 0.097908534 0.16287456
0.11658245 0.617522 0.09220944 0.1612621 0.06164068 -4.857514 0.08077748 -6.176524
-3.1220999 4.412826 0.12957047 0.13442358 0.11140052 0.075042516 0.11837378 -4.3754015
0.14230536 0.08309876 -1.1966463 -6.269331 -6.1762156 0.1466292 -1.0284376 0.07694845
-3.0478601 0.33707577 -4.0080066 -3.2074707 -4.4120235 -2.4853814 2.9958196 -2.3088145
0.11796102 -0.30645454 0.12518641 -3.8708057 0.07836632 0.64461124 0.16537635 -2.1910815
-6.3026676 -0.53556955 0.12992653 -5.9617553 0.057600018 0.04093752 0.059490565 -3.038299
-0.23782507 0.13702138 0.09318889 -6.228146 -6.592505 -6.0317307 0.11537924 0.08154457
3.6587245 0.054652054 0.07461588 -1.7952982 -4.004685 -3.027868 0.038668223 2.17674
0.0899736 -0.9642908 -3.7078867 0.047188155 0.14585777 0.104531966 -3.5444677 0.042924747
3.2120283 0.098040745 -0.5843347 0.067797095 0.124442026 0.10321249 0.09644942 0.15774393
-1.4395167 0.15145259 0.08846724 -6.4598327 0.14309312 0.09526115 0.16126007 0.05003503
3.8461196 0.078944184 -0.017306542 -0.0020309566 -0.030909255 -0.065069936 -0.036000874 -7.3217735
0.0376958 0.0075098006 0.02107964 -0.005579468 -7.3708954 0.056250077 0.017347006 -0.017945789
-0.047548376 -0.07248674 0.07596599 -0.04719774 2.244921 -0.0008932557 0.5285682 -0.010661464
0.006173793 0.016359758 0.056544803 0.022906283 -0.017134013 0.011177724 -0.052745715 -0.032149684
-0.6737832 -0.0072310967 0.010194909 0.056543406 0.03689145 0.04820893 -0.030861063 0.0033467365
-0.02166878 0.019866074 -0.034580987 0.0019390713 -0.020125097 -0.042957723 0.039522666 0.033422753
1.3222095 0.03920693 0.014263817 0.040987484 0.021596286 -0.029632358 -0.010687601 -0.0005365303
0.0116562545 -0.0044539096 0.4876303 -0.07010439 -0.0016140667 -0.03140772 0.05536843 -0.04180601
-6.0822024 -2.8610396 5.358838 0.06739107 0.0040881904 -0.048897278 0.35852516 0.11124841
0.00278701 -0.0031659652 -0.00082550425 0.022619978 -0.023949446 -0.62483764 -0.005513952 0.038511522
0.040675364 2.9098623 0.00012879235 0.037614368 -0.07766908 -0.058560546 -0.011518129 0.020984147
-0.02891926 0.18682957 -0.04063912 0.028728837 -0.047302242 0.030935517 -0.0055889925 -0.06833807
0.3778187 -0.0630923 -0.031847194 0.70846456 -0.024681183 -0.057133194 -0.025000934 0.044223476
-0.034734797 5.027498 0.00955538 0.01579236 0.012214776 -0.00025449885 -0.060704578 -0.010476606
-0.2042227 0.02415765 1.6884513 0.027287431 -0.0057895477 -0.057418134 0.046621878 -0.0031180852
-0.012025868 0.042394362 -0.03840325 0.014761557 -0.04126943 0.019181246 0.04500998 0.004675225

rnn.weight_ih_l1 f4 [384, 128]
00000000: 479f e83f 86e4 b240 afdd aec0 c65b b340
00000010: d266 bf40 368c b940 7c71 b3c0 312b 953f
00000020: b367 ba40 debb b140 fb00 bcc0 b7fa b240
00000030: 5690 973f 4aa8 b740 6bef af40 1210 ba40
00000040: fe8e b240 75b4 c040 78ff b640 b366 bf40
00000050: 5a51 a43f 3ed0 aec0 7b31 9f3f a3de bc40
00000060: e015 b240 95be 8a40 c467 8a40 e014 8f40
00000070: 71c7 ae40 a176 c140 a22a b1c0 2cfa b740
00000080: 7b91 213f 402f b740 1d20 b340 4ab1 bac0
00000090: da2c b340 3ef9 8d40 0200 b940 8175 b5c0
000000a0: 5d00 bdc0 f57c b140 1870 b440 484d b540
000000b0: 73f2 c240 4dce b040 a697 b140 b795 af40
000000c0: 3e1a 4940 2f34 af40 b05e ae40 a198 b240
000000d0: 5c76 b940 2b65 a540 00c4 b840 09c5 b4c0
000000e0: 94c6 b640 4b9f be40 b34a e63d fc6c b940
000000f0: 375f b040 0380 be40 ba90 b340 d2d3 c240
00000100: 9520 0840 8beb ddbf 2a12 e93f 8cc1 b440
00000110: 0e10 af40 583c b1c0 d5f9 bc3f f5cd 963f
00000120: 7ef8 bcc0 6adf b73e 4a3d be40 1cae b740
00000130: 4550 bac0 d3fb 863e 0ec3 b240 e6a0 8740
00000140: b3c3 b640 a807 8f3e 776b b340 353f b040
00000150: b654 af40 146a c040 a12a bc40 788c b340
00000160: e2ee 6140 0f9e 0140 34c9 b640 bd54 ac40
00000170: e106 aac0 72da b640 f32b c340 7b95 bcc0
00000180: 1df9 2440 cf30 b440 deed b740 0a79 28c0
00000190: c5bf 8940 93b0 b140 6f85 b540 b775 8f40
000001a0: ab60 c140 0155 c73f 2f4d 8d40 af9f b540
000001b0: 3b8b be40 bd39 b940 cdab b240 fe0f b340
000001c0: b6c3 6e3f 830b bb40 794f 6b40 1f18 b240
000001d0: ef7f bf40 8284 bd40 1617 b640 a9a3 b540
000001e0: 3ecc acc0 b4e0 b540 2329 b340 cdf1 b840
000001f0: 0a12 bd40 6f8f b5c0 5144 c040 5090 b440
00000200: 977f bf3e 39f6 b0be b1ae a53e c2ea 23bd
00000210: 8288 05be 54b4 61be 3ff3 fd3e 6dfe 713e
00000220: 98d9 23be ede1 97be d978 b63e 96d7 b4be
00000230: b2d6 8dbe 5c1c 57be fd93 22be bbd5 a53c
00000240: a6ac 21be 6179 3dbe 4461 82be a41b 3bbe
00000250: 046f b53d a493 0d3f 8f18 843d 1060 70be
00000260: d417 48be 0220 8cbe 0b2b 69bd 3d16 5fbe
00000270: 4b2e 94be 895d 0cbe 3444 8d3e 315f 9abe
00000280: d307 6f3e 1e29 8abd a6b1 59be 6c2a c03e
00000290: 852d bcbe 4dc3 4cbd 608e e7bd 4add 843e
000002a0: f204 833e 34b5 fabd 0d1f bb3a 0dd2 d2bd
000002b0: cc80 cdbd 30a2 86be a024 82be 3fc7 cabe
000002c0: 23f0 343e 7723 29be 7ea0 b4bd f45d 22be
000002d0: 6d79 8bbe 7819 abbe 6e8e 1ebe 2910 963e
000002e0: c559 3bbe b20a cebd 45b7 09be 7503 ddbd
000002f0: b1dd 56be a8a8 d0bd 2d52 8d3d 0986 53be
00000300: bb2e 363e 18d1 0b3f 58f3 a4be eed7 97bd
00000310: 057d 7cbe c024 cc3e 7391 fbbc 61e5 7c3d
00000320: 9ee2 853e f0c2 abbe 28b7 edbd 8f8c 3ebe
00000330: 3364 873e ffb0 03bf a49f 11be 0b14 abbd
00000340: 8914 cabb 97bb bebe 9f0b aebe 32e1 89be
00000350: dd98 82be fc29 96bd 032b 51be 6dc0 1ebe
00000360: 69b3 aa3c c4d9 79be 4288 28be 2d08 cbbe
00000370: 777b d23e 8496 dabc fd36 c6bd 24e2 9e3e
00000380: d7e5 02bf aac2 88bd 93a3 29be 29ef 743e
00000390: 20e0 fdbd 927b a8be 4fd7 aabe 3659 59be
000003a0: f3d3 19bd df16 a0be 7485 32be 31fc 88be
000003b0: 09c6 07be 3609 27be e5a0 bfbe dc46 22be
000003c0: b688 bdbd 102a 03be e731 d2bd 71df 56be
000003d0: 5658 23be b1d7 47be 86a8 9fbe 137a 68be
000003e0: 6662 053f 2438 a7be 93b5 9abe b9d3 f2bd
000003f0: 77ff 0ebe affd d93e 0405 34be 3ed7 81be
1.8173608 5.590396 -5.464561 5.604953 5.9813013 5.7983656 -5.607603 1.1653806
5.8251586 5.554183 -5.8751197 5.593105 1.1840923 5.739293 5.497976 5.8144617
5.579955 6.0220284 5.718685 5.9812865 1.2837327 -5.46292 1.2436975 5.9021773
5.5651703 4.3357644 4.3251667 4.471298 5.461846 6.045731 -5.536454 5.7492886
0.6311261 5.724518 5.59767 -5.8341417 5.599225 4.436675 5.781251 -5.6705937
-5.9062943 5.5465035 5.6386833 5.6656837 6.092096 5.525183 5.549762 5.4870257
3.1422267 5.47512 5.4490585 5.5811315 5.795698 5.1685996 5.773926 -5.649052
5.7117405 5.956945 0.112447165 5.7945538 5.511623 5.9531264 5.611417 6.088357
2.1269886 -1.7337507 1.8208668 5.6486263 5.47071 -5.538616 1.4763743 1.1781603
-5.9053335 0.3591264 5.9449816 5.7400036 -5.8222985 0.26364002 5.5863104 4.238391
5.711389 0.2793553 5.6068683 5.5077157 5.4790907 6.012949 5.8802037 5.610897
3.5302052 2.0252721 5.712061 5.385344 -5.3133397 5.7141657 6.099115 -5.893247
2.5777047 5.630958 5.7477865 -2.6323876 4.3046594 5.5528045 5.6725383 4.4831195
6.0430503 1.5572816 4.415672 5.6757426 5.954496 5.788298 5.583472 5.595702
0.9326738 5.8451552 3.6767256 5.5654445 5.984367 5.9224253 5.690318 5.676228
-5.399932 5.6836796 5.5987716 5.7795167 5.908452 -5.673759 6.0083394 5.6426163
0.3740203 -0.34562853 0.3235984 -0.040018804 -0.13040355 -0.22041446 0.49599645 0.23632212
-0.16000974 -0.29664555 0.35639074 -0.3532073 -0.27702862 -0.21006912 -0.15876766 0.020243516
-0.15788516 -0.18503334 -0.25464833 -0.18272263 0.08859065 0.55303407 0.06449997 -0.23474145
-0.1954034 -0.2736817 -0.056925815 -0.21785827 -0.2894157 -0.13707556 0.27591097 -0.3015075
0.23342828 -0.06746124 -0.21259174 0.37532365 -0.3675348 -0.04999094 -0.11306453 0.2595008
0.2558971 -0.12241593 0.0014276222 -0.1029397 -0.10034332 -0.26295614 -0.25418568 -0.39605138
0.1766973 -0.16517435 -0.08819674 -0.15856153 -0.27241078 -0.3341787 -0.1548402 0.29309204
-0.18295963 -0.10060634 -0.13448818 -0.10791675 -0.20983006 -0.101884186 0.069004394 -0.20656599
0.17791264 0.54615927 -0.32216907 -0.07414232 -0.24657066 0.39871788 -0.030709004 0.06174219
0.26149458 -0.33547163 -0.116072 -0.18608306 0.26443633 -0.5144195 -0.14221054 -0.08353432
-0.0061669988 -0.37252495 -0.3399324 -0.26929623 -0.2550725 -0.07332227 -0.20426564 -0.15503092
0.020837503 -0.24399477 -0.16458228 -0.39654675 0.4110982 -0.0266831 -0.09678457 0.31031907
-0.5113196 -0.06677754 -0.16566305 0.23919357 -0.12396264 -0.32906777 -0.33367392 -0.21225438
-0.037555646 -0.3126745 -0.17433721 -0.26754907 -0.13259138 -0.16312107 -0.3742744 -0.15847343
-0.09254591 -0.12809014 -0.10263424 -0.20983674 -0.15951666 -0.19515873 -0.3118326 -0.22702818
0.5210327 -0.3266002 -0.30216655 -0.11856789 -0.1396464 0.42576358 -0.17580038 -0.2535953

rnn.weight_hh_l1 f4 [384, 128]
00000000: c8db c83c 9ab2 19bd 9a39 87bd 289b 1cbc
00000010: 61b8 863d c08b a13a 1a34 673d 8abd 053d
00000020: d811 a6bd 49a9 973d caca 523d d759 43bd
00000030: 68f6 3fbd 2989 47bd f355 813d 00b8 9d39
00000040: aabc 263d 966f 713d 070e ae3d 8600 393d
00000050: 12cf 7dbd 003b 583b c378 ae3d 118d 963d
00000060: 82f7 59bd f650 733d daf0 103d eaa7 8bbd
00000070: b4f2 f33c e6d1 e7bc 30ef 8e3c 2f3b 833d
00000080: 9405 eabc dc16 93bd e8c6 7dbc b0f4 a3bc
00000090: 12f5 32bd 10d7 e83c 384f 213c a883 8dbd
000000a0: f84c 8f3c b236 243d 37c1 18bd 36b1 6e3d
000000b0: a2e0 613d 9ad3 6cbd a0cd c9bc 6a14 57bd
000000c0: 0d65 983d 5631 5b3d 5052 dc3b 90b7 a93b
000000d0: 9ece 473d e63c 6b3d 6a9a 13bd 4d79 a83d
000000e0: 5858 24bd ed5a a03d b815 79bd 7099 a4bc
000000f0: ff96 a1bd 5d9c b3bd c827 7abc 0035 693a
00000100: 0103 61bd bab8 90bd 400f afbd 603d 073d
00000110: a4ab afbd 69ff 823d 2d1d 29bd 94e5 aabd
00000120: 6223 d9bc e3e3 ae3d e1d7 91bd 9a3f 223d
00000130: e051 ea3c dceb 14bd ea9e 153d 5c50 063d
00000140: 26e9 363d 94b1 f63c 528a 6b3d c56e ac3d
00000150: c7e6 a0bd 0004 043a 0026 893c 9c78 a1bd
00000160: 2089 743c 2859 563c ae96 723d 887e 40bc
00000170: 6a2e 233d c08f 083c fc49 dd3c 767b 6f3d
00000180: 9acd 613d f1dc b1bd b003 c9bc 5cc7 d7bc
00000190: 60fa 7cbc c4d1 a3bd c435 94bc 1804 96bc
000001a0: df70 873d 34f3 f4bc 0e00 0f3d b0ef 9dbb
000001b0: 1cf7 07bd 639d 0dbd af84 973d c93e acbd
000001c0: d7d4 22bd 0ba5 8c3d 56ca 443d bc92 76bd
000001d0: 4bdb a4bd 2288 7d3d 0131 82bd c235 8cbd
000001e0: 9a59 273d 9327 01bd b1dd 8a3d b072 a3bc
000001f0: f82c e33c ac8b cc3c 2825 c73c 0e93 023d
00000200: 22e8 30bd 42fe a2bd 38cc ec3c e8de 3a3c
00000210: adc3 a13d 4936 3fbd 5024 debc dca2 a7bc
00000220: 8694 1b3d a086 183b 9cba cb3c 22b5 97bd
00000230: 4a6b dabc 84a3 27bd 275d 24bd 1ccd 8e3c
00000240: 11f0 04bd 3a4b 393d 96d9 4b3d dc03 ad3c
00000250: b025 c4bc e6e4 483d 724b 7a3d 2042 a53c
00000260: 7c26 74bd 69c4 8cbd 0653 89bd 77a5 7ebd
00000270: a676 103d 61b0 923d dc7a ce3c 2a04 0f3d
00000280: a07a f5bb 1118 97bd 0610 193d 49fa 94bd
00000290: 522c d4bc 11c6 a33d 561f a3bd e42d fe3c
000002a0: b846 35bc 5b1d 8f3d 0338 953d 9134 8b3d
000002b0: f9d4 3dbd 9ea9 533d 56ff 143d e478 b6bc
000002c0: 6d43 38bd d05c 583c e87f eebc 9e7e 94bd
000002d0: 68f0 113d 3737 47bd 744f b1bd b5b5 923d
000002e0: e9ff b3bd f7ec a4bd f521 9b3d ae7d 693d
000002f0: dbcd 993d 06bf 6fbd 93d5 943d 0f86 a33d
00000300: 0856 96bc e3f1 a73d f127 15bd 5691 203d
00000310: d875 aabd 3891 e93c b192 a33d ca3f 273d
00000320: ce5f 7abd 66f1 443d 2ae9 5a3d 5e8e 6cbd
00000330: 4073 dd3a d099 5dbc 64ff abbd f0ec 9dbc
00000340: 0435 0cbd f06a f33b 100e 0bbd 8091 8bba
00000350: 40ec d5bc 4202 233d 7289 713d a0de d03b
00000360: e01b d4bb fcac 5bbd c05f 9bba 42bc 183d
00000370: fb4f 993d b7b4 8a3d 2090 c93c 0008 863b
00000380: 8050 e9ba e599 923d 2a35 e3bc d6e3 533d
00000390: 808a 03bc 19b8 64bd 0a82 283d e915 903d
000003a0: 20b7 27bc e5a2 a43d 6c6e cf3c 0c7e 8a3c
000003b0: e8c4 7f3c 72ae 5e3d eb98 23bd f6ea 453d
000003c0: d014 8cbd 0c15 c4bc 9e45 b3bd 947c 93bd
000003d0: 88c9 a2bc 18b2 bfbc 7ecb 033d df54 4dbd
000003e0: 22bc 6cbd 0041 453b fcd3 b8bc 8410 81bd
000003f0: 98db 99bc 8021 44bc e538 14bd 608a 0c3d
0.024518862 -0.037523843 -0.066027835 -0.0095584765 0.06578136 0.0012324974 0.056446172 0.03265146
-0.08108872 0.074053355 0.051462926 -0.0476931 -0.04686585 -0.04871479 0.06315222 0.00030082464
0.040707268 0.058944307 0.08498769 0.045166515 -0.061965056 0.003299415 0.08519127 0.07351125
-0.053214557 0.059403382 0.035385944 -0.068191364 0.029778816 -0.02829833 0.017448038 0.06407773
-0.028567113 -0.071820945 -0.0154893175 -0.020014137 -0.04369075 0.028422862 0.009845547 -0.06909877
0.017492756 0.040091224 -0.03729364 0.05827447 0.055145867 -0.057818986 -0.024634182 -0.052509703
0.07441149 0.053513847 0.0067236796 0.005179353 0.04878103 0.057431124 -0.036035933 0.08226261
-0.040123314 0.07829843 -0.06081173 -0.020092696 -0.07890128 -0.08770058 -0.015268274 0.0008896142
-0.054934505 -0.07066484 -0.085478306 0.033017516 -0.0857766 0.06396372 -0.04128759 -0.0834457
-0.02650613 0.0853956 -0.07121254 0.039611436 0.028603494 -0.036357746 0.036528505 0.03279148
0.04465594 0.030113973 0.05750496 0.08419565 -0.07856517 0.00050359964 0.016741753 -0.078843325
0.014925271 0.01308278 0.05922573 -0.011748917 0.039839186 0.008335054 0.027012818 0.05846735
0.055127718 -0.08684719 -0.024537891 -0.02634018 -0.015440553 -0.07998994 -0.018092044 -0.018312499
0.06613325 -0.029901125 0.03491216 -0.0048198327 -0.033194646 -0.034573924 0.07398354 -0.08410413
-0.03975376 0.06867417 0.048044525 -0.06019853 -0.08049639 0.061897404 -0.06357003 -0.06846191
0.040856935 -0.03153188 0.067805655 -0.019952148 0.027731404 0.024968944 0.02430971 0.031878524
-0.04319013 -0.07958652 0.028905973 0.011405684 0.0789865 -0.04668263 -0.027116925 -0.0204634
0.03798344 0.0023273602 0.024869256 -0.07407595 -0.026662488 -0.040927425 -0.0401279 0.017431788
-0.032455508 0.045237757 0.049768053 0.021120004 -0.023943752 0.04904642 0.061107107 0.020173132
-0.059607014 -0.068734 -0.067052886 -0.06216952 0.035269402 0.07162548 0.025205068 0.03491608
-0.0074914247 -0.07377637 0.037368797 -0.072743006 -0.02590004 0.079967625 -0.07964961 0.031027742
-0.011064224 0.06988021 0.07286074 0.067971356 -0.046345685 0.05167543 0.03637632 -0.022274442
-0.044986177 0.013205722 -0.029113725 -0.07250713 0.03562966 -0.04863664 -0.086577326 0.07163564
-0.08789045 -0.0805301 0.07574836 0.057004623 0.07509967 -0.058531784 0.072672985 0.07984554
-0.01835157 0.08200433 -0.036415044 0.039201103 -0.08323258 0.028511629 0.079869635 0.04083232
-0.061126523 0.048081778 0.05344502 -0.05775296 0.0016895309 -0.013525441 -0.08398321 -0.01927802
-0.034230247 0.0074285194 -0.033948958 -0.0010648221 -0.02611363 0.039797075 0.05896897 0.006374195
-0.0064730495 -0.053631768 -0.0011854097 0.03728891 0.07485958 0.0677275 0.024604857 0.004090309
-0.001780048 0.07158259 -0.027735312 0.051730953 -0.008028626 -0.05583963 0.04113964 0.07035429
-0.0102365315 0.08038882 0.025321208 0.016905807 0.015610911 0.054365583 -0.039940756 0.04831978
-0.06839907 -0.023935817 -0.08753513 -0.07201496 -0.019871488 -0.023400351 0.032176487 -0.050129768
-0.057796605 0.0030098557 -0.02256202 -0.06301978 -0.018781468 -0.011970878 -0.03618707 0.034311652

rnn.bias_ih_l1 f4 [384]
00000000: 66d3 20c0 e7c8 863e 06da 183e 216f c3bf
00000010: a79a c03e 7acd d6be dcb9 7fc0 313d 763e
00000020: 8f54 613f f862 193f f380 c03e 78f7 f13c
00000030: 5d78 fcbe caf3 f5bf 4987 51c0 4f41 7c3d
00000040: cc12 53bd 7e8b 68be b6d8 dc3f 469d cb3d
00000050: 4467 3fbe 20ee 093f 9eda 8c40 844b 2fbc
00000060: 2586 43bf b3ca 8840 0ef9 323d 136e 2a3f
00000070: f61a f8bd 862e 82be 972d 88c0 f9bd 863e
00000080: 829c 0fbf 9086 9bbe e8c4 80c0 f0d9 76bd
00000090: 06cc 383f 006b 44c0 bca6 4740 2337 94be
000000a0: 7146 61bf 135a 33be 4565 883e 8994 2cc0
000000b0: 1e44 74c0 4ad8 8240 51b8 f8bc dcaf b3be
000000c0: f091 603e 73b5 36bf 3c25 513e c127 3540
000000d0: 9430 6ebe 41b5 6bc0 ddf0 7f3e 4caa acbe
000000e0: c39e 153e 84f6 333f 3966 bebd 9c14 f43f
000000f0: 5cd9 ee3e ced5 96c0 75ae f1be 89bb 2040
00000100: 2560 f3bf 6c20 2bbd 281d 5f3e 0e98 ecbe
00000110: 3cfe b0be 877c a1bf 00c5 d23e 284d 40bf
00000120: b48f 05c0 5faa 99bf e986 1cbf 9303 57c0
00000130: e27d 923f 0987 c63e 364e 893e 01c5 443e
00000140: 5c5e c8be d196 03bd c9ad e73d 21f8 02c0
00000150: ce5f d33e 4460 2cc0 2d8b 54be 39c7 c73e
00000160: f5dd 473e 00ef f1bd 617e 8f3e dff1 6240
00000170: cd7d c3bc ef03 323e 189e 493f 73ac 0940
00000180: 4d31 b0c0 9052 1a3f fe29 87c0 b873 973e
00000190: 5f0f 643f c823 8bbf 7f61 c3be 68b6 cc3d
000001a0: 0836 8a40 d8a8 703e e5fd a43e 1a1b 3bbf
000001b0: 90ec e2be a4b6 4340 0b21 80be 2f2b d8bb
000001c0: 178f 58c0 e678 843e b159 5640 c71d 103f
000001d0: 617d 81c0 8f56 25be 810e e0be e326 acbe
000001e0: 7086 113e 029b b7bf 1729 3ebe dad4 12c0
000001f0: 8e0b 56be 53b0 803d c49e db3c 583e a83e
00000200: b6b0 cbbe a281 4ec0 6db8 46bf bdcb 0cbf
00000210: 47a8 6abf f7a3 5240 e945 0fc0 47fb 68c0
00000220: 9cb4 8c40 f371 9dbd cf67 1b3f 451a e73f
00000230: c035 d13f 9b9c ddbe 7c3a 11c0 1410 3940
00000240: 26b4 11c0 1f6a 2cc0 8428 34c0 c521 1141
00000250: 857b be3f b204 633f 286d 50c0 9572 0b40
00000260: e429 0940 9d7e d640 74c1 d43f 62dd 873f
00000270: 87cc c43f f049 263f 72b3 7240 4b2e 36c0
00000280: 6015 5c40 5ed9 30be caa8 72bf ddb9 e73d
00000290: 8f61 2dc0 cb79 8540 e70b e140 7eb5 063f
000002a0: 6be6 0840 505f f9bf bedf 26bf 72a7 673f
000002b0: f8f1 2441 e4b3 2941 5845 7dc0 f98f 353f
000002c0: 0a1d f43f 092b fa3f 4ed3 4cbf d0ef 40c0
000002d0: 2534 6bc0 227d 8540 6a3e a9bc 099d c0bf
000002e0: 3635 b9c0 3fd1 bfbf 149a 0e3f 1e3c a0bf
000002f0: 2564 0fc0 8b53 4a40 656d 1c40 53fe c7c0
00000300: 462c 1940 0e30 213f 9e80 0440 4365 acc0
00000310: a158 0c40 d17a 84bf b274 833e f359 79ba
00000320: d047 bc40 0f28 1cc0 3dac 0c3f ac21 60bf
00000330: 96c9 8fc0 fd8a 5ec0 2f36 33bf dfb3 e1c0
00000340: 0638 8fbf 1aa1 8cbf f86e c03f 1e16 b9bf
00000350: 006f 66c0 c144 6bbf ce80 8040 dd45 8cbf
00000360: a1ae 40bd 843b 9e3f f302 4e41 e553 29bf
00000370: 357f 09c0 028f b9c0 3ead 2a3f b310 fb40
00000380: aae2 d040 b5b9 8cc0 79ec 0ec1 8f87 06c0
00000390: 2381 70c0 7f52 eabf 4974 3b41 e6af 97bf
000003a0: 1bc4 5c40 f4e3 04bf 1d89 8340 13e8 4a40
000003b0: fe66 463e aa7b 11c1 2ea9 0b3f 189f 0341
000003c0: b26c 7cc0 cb8d a73f ddfc 0541 9ace a6c0
000003d0: c82a e140 df13 7fc0 7854 1a40 f19d 6441
000003e0: f195 88bf 0d43 6cc0 4333 b93f 2a67 003f
000003f0: 4c4b 7a3f 7cc9 40be 3619 93c0 9de2 683e
-2.5129027 0.2632515 0.1492692 -1.5268289 0.3761799 -0.4195364 -3.995719 0.2404678
0.8801965 0.5991664 0.3759838 0.029536948 -0.4931058 -1.9215024 -3.2738822 0.06158572
-0.051531598 -0.22709462 1.7253635 0.09942107 -0.18691736 0.53878975 4.4016867 -0.010699157
-0.76376563 4.2747436 0.04369455 0.6657421 -0.121145174 -0.2542612 -4.255565 0.26316813
-0.56098187 -0.303761 -4.0240364 -0.060266435 0.72186315 -3.0690308 3.1195517 -0.28948316
-0.8799811 -0.1751483 0.26639763 -2.6965659 -3.8166575 4.0889025 -0.030361326 -0.35095108
0.2193067 -0.7137062 0.2042436 2.8305514 -0.23260719 -3.6829379 0.24994226 -0.33723676
0.14611344 0.7029803 -0.09296841 1.906879 0.46650207 -4.713599 -0.47203413 2.5114462
-1.9013716 -0.041778967 0.21788466 -0.4620976 -0.34568965 -1.2616128 0.41165924 -0.7511773
-2.086896 -1.2005118 -0.61143357 -3.3595932 1.1444666 0.387749 0.26817483 0.19215776
-0.3913449 -0.03212625 0.11312444 -2.0463946 0.4128403 -2.6933756 -0.20756216 0.39019182
0.19518264 -0.11813164 0.28026107 3.5460126 -0.023863697 0.17384313 0.78756857 2.1511505
-5.506018 0.6028223 -4.223876 0.29580474 0.89085954 -1.0870295 -0.3816032 0.09995729
4.3190956 0.23501909 0.32224956 -0.7308823 -0.44321108 3.0580225 -0.2502521 -0.0065969448
-3.3837335 0.25873488 3.3492243 0.56295437 -4.046555 -0.161463 -0.43761066 -0.33623418
0.1421144 -1.434418 -0.18570362 -2.2942414 -0.20902845 0.06283631 0.026809104 0.32860065
-0.39783257 -3.2266622 -0.7762516 -0.5499838 -0.9166302 3.2912576 -2.238642 -3.6403368
4.397047 -0.0768775 0.60705274 1.8054892 1.6344528 -0.43283543 -2.2691946 2.8916063
-2.2766204 -2.693977 -2.8149729 9.0707445 1.4881445 0.8867904 -3.2566624 2.1788685
2.1431818 6.7029557 1.6621537 1.0614436 1.5374917 0.6495657 3.7922025 -2.8465755
3.4388046 -0.17270419 -0.947888 0.113147475 -2.7090795 4.1711173 7.032703 0.52620685
2.1390636 -1.9482212 -0.65185153 0.90489876 10.309074 10.606419 -3.9573574 0.7092281
1.9071362 1.9544383 -0.80009925 -3.014637 -3.6750576 4.171525 -0.020659644 -1.5047923
-5.7877455 -1.4985732 0.55703855 -1.2518346 -2.2404873 3.161349 2.444177 -6.2497954
2.3933272 0.6296395 2.0703502 -5.387361 2.1929095 -1.034998 0.2567497 -0.00095119997
5.883766 -2.439945 0.54950315 -0.8755138 -4.4933577 -3.4772332 -0.7000455 -7.053207
-1.1188972 -1.0986664 1.5033865 -1.4459875 -3.600525 -0.91901785 4.015723 -1.095882
-0.04704154 1.2361913 12.87572 -0.6614364 -2.148389 -5.798707 0.66670597 7.8457885
6.527669 -4.3976693 -8.932733 -2.1020238 -3.7578819 -1.8306426 11.71589 -1.1850555
3.4494693 -0.5191033 4.1104875 3.1704147 0.19375226 -9.092691 0.5455502 8.226341
-3.9441342 1.3090147 8.374234 -5.21272 7.0364723 -3.9855878 2.4114056 14.28856
-1.0670758 -3.6915925 1.4468769 0.50157416 0.97771144 -0.1882686 -4.5968275 0.22742696

rnn.bias_hh_l1 f4 [384]
00000000: fd4c 24c0 f1b0 b53e 0885 173e 4d26 d3bf
00000010: 9749 f23e d246 fcbe 2980 82c0 25ca 313e
00000020: 5b78 633f 5c30 0f3f c222 ed3e a354 42bc
00000030: 4b48 aebe 4077 fcbf f614 54c0 b892 96bd
00000040: 1023 e6bd 21b4 95be 0ce2 db3f 806d d23d
00000050: 31f5 80be f33b 103f bb3c 8a40 5fab 803d
00000060: 8bf6 63bf fabe 8c40 9d01 15bb 4f44 043f
00000070: 4545 80bd d0e8 9fbe 3525 87c0 e038 813e
00000080: 7073 1bbf dafb d0be fae0 78c0 b6f0 fcbd
00000090: 2247 493f aaa6 45c0 e86d 4140 62b9 64be
000000a0: 133c 4abf 97d8 44be 1036 853e 53a4 27c0
000000b0: 4eac 77c0 88cd 8140 f005 95bd b2e7 bfbe
000000c0: 98df 623e a1fb 4abf 1c8c 543e 4bdd 3940
000000d0: 833f dfbd 1958 70c0 3001 c53d d89d 91be
000000e0: 6d01 463e aef4 283f 692a fabd 5c37 f23f
000000f0: e615 f23e 63ef 9ac0 bbc1 aabe 13f6 1c40
00000100: 0d35 eebf b18d 0dbe 86fe 9c3e 1237 bebe
00000110: fa74 d3be d560 a1bf 37e4 983e 5eec 38bf
00000120: a329 fcbf bbaf 9bbf d1ab 30bf d7d3 5cc0
00000130: d7e9 903f ef0e cb3e 5497 9b3e 899c 903e
00000140: 2e2f cbbe dad8 71bd 1a7b 893d 7d82 f5bf
00000150: 3251 bb3e fe1c 2fc0 b553 73be 792c 983e
00000160: aaf0 773d 1473 a0bc 12b8 3f3e af31 6340
00000170: 1903 a6bd 5d10 8a3d 823c 2c3f 568c 1040
00000180: 635c b1c0 b513 103f 8576 87c0 860f a53e
00000190: efd2 463f 41d2 75bf ff7b ecbe 640f 603e
000001a0: dcff 8540 2449 273e 3910 673e 461a 42bf
000001b0: 5c29 f1be b26f 3e40 fce5 43be cfc4 d6bb
000001c0: 19b3 55c0 bfb5 603e 9575 5540 3d96 283f
000001d0: 7faa 80c0 5e80 c2bd 7253 e1be b17d a3be
000001e0: 9a6e 783e 5c41 bdbf 2d79 5ebe 8ae0 14c0
000001f0: 34dc 06be 0092 f9bc 9cb8 e93c 6e69 e63e
00000200: 7b6a 9cbe 9489 57c0 754a 49bf baa8 10bf
00000210: d5ac 6cbf 6575 4d40 98d2 19c0 90d4 65c0
00000220: 1d3f 8d40 135b a43d ef98 1a3f 578c de3f
00000230: ae3c da3f 9f80 b4be 921b 17c0 92ca 3440
00000240: 1c43 16c0 93c9 29c0 819e 2fc0 6ce1 1141
00000250: 15c3 b63f 84b4 663f ca1b 4fc0 3cde 0340
00000260: fc9a 0e40 938d d640 89ef ca3f 97aa 8d3f
00000270: d38e cc3f 3aed 123f 3f4a 7240 118d 39c0
00000280: 82ca 5540 b89d 7fbe f6e6 7bbf 5afd 183e
00000290: 6182 25c0 bd8b 8440 9995 df40 acfb f43e
000002a0: c797 0540 bf2d febf 84de 30bf c6d4 613f
000002b0: dbac 2641 8d72 2a41 fefd 79c0 b17c 243f
000002c0: 8c9a fb3f 8689 0540 dec5 4abf 56b9 3bc0
000002d0: 1e3d 69c0 ea3d 8540 eeb1 853d 2bc9 b2bf
000002e0: 145f bac0 afca c4bf d6f1 fc3e 96b7 a6bf
000002f0: bd26 0fc0 113e 4940 cd4a 2240 3a08 cac0
00000300: cab1 1d40 0cd4 1a3f 65e8 0540 66aa b0c0
00000310: 564b 0440 f315 60bf d325 a23e 6166 063d
00000320: 88f7 b840 9557 18c0 1a30 1d3f 7c51 4abf
00000330: 767f 91c0 a32d 65c0 53b2 32bf 2fe3 dfc0
00000340: 842f 8abf 548c 93bf be65 d23f 1c18 b5bf
00000350: 93ee 64c0 17b3 6dbf 6bbf 8540 abc0 97bf
00000360: 5c72 da3b 2fe8 a03f a402 4d41 4b9e 1fbf
00000370: 854c 03c0 50b6 b7c0 54b7 2e3f a89e f640
00000380: 4826 cf40 f050 8dc0 24aa 0ec1 6c2f 02c0
00000390: 352d 6cc0 2002 ecbf 65ac 3c41 722a 8abf
000003a0: 8f87 5d40 f0b3 14bf 69aa 8440 881c 4940
000003b0: eb1a 8e3e 7875 12c1 866b 1d3f 1789 0241
000003c0: 2c95 72c0 5ae5 9b3f f0f3 0741 b234 a3c0
000003d0: f072 df40 a7b2 79c0 3408 2340 635a 6541
000003e0: 6258 9bbf 1d30 6ec0 c133 b83f bc60 043f
000003f0: 3480 5d3f a6c7 7abe 569d 94c0 b7b4 5e3e
-2.567199 0.35486558 0.14796841 -1.6496063 0.4732177 -0.49272782 -4.0781446 0.17362268
0.8885552 0.55933166 0.4631558 -0.011860999 -0.3403953 -1.9723892 -3.3137794 -0.07352203
-0.112371564 -0.2923899 1.7178359 0.10274792 -0.25187066 0.56341475 4.3199134 0.062826864
-0.8904807 4.3983126 -0.0022736557 0.5166673 -0.06263212 -0.3123231 -4.223292 0.25238705
-0.6072302 -0.40817147 -3.8887315 -0.123505995 0.78624165 -3.0882974 3.0223331 -0.22336343
-0.78997916 -0.19223247 0.2601781 -2.6194046 -3.8698916 4.0563393 -0.07276523 -0.37481457
0.22155607 -0.79290205 0.20756572 2.9041317 -0.10900786 -3.755377 0.09619367 -0.28440738
0.19336481 0.6599835 -0.1221512 1.8923144 0.47282332 -4.841722 -0.3335093 2.4525192
-1.860994 -0.13823582 0.30662936 -0.3715139 -0.41300184 -1.2607676 0.29861614 -0.7223567
-1.9700207 -1.2163004 -0.6901217 -3.4504297 1.1321362 0.3965983 0.30388892 0.28244427
-0.39684433 -0.059044696 0.06712933 -1.9180447 0.36585385 -2.7361445 -0.237624 0.2972143
0.06053225 -0.019586124 0.18722561 3.5499074 -0.081060596 0.06741402 0.6727983 2.2585654
-5.5425277 0.5628007 -4.2332177 0.32238406 0.7766561 -0.96023947 -0.46188352 0.21880871
4.187483 0.16336495 0.22564782 -0.7582134 -0.47101867 2.9755673 -0.19130701 -0.006554223
-3.3390563 0.2194433 3.3353016 0.65854245 -4.0208125 -0.0949714 -0.44008976 -0.31931832
0.24260941 -1.4785571 -0.21725912 -2.3262048 -0.13169938 -0.030465126 0.028530411 0.4500231
-0.30549988 -3.367772 -0.7862924 -0.56507456 -0.9245122 3.2102902 -2.4034786 -3.5910988
4.4139543 0.080251835 0.6038961 1.7386578 1.7049768 -0.3525438 -2.3610578 2.824864
-2.347846 -2.652928 -2.7440493 9.117535 1.4278284 0.90119195 -3.236071 2.060439
2.2282095 6.704782 1.585435 1.1067685 1.5981086 0.5739323 3.7857816 -2.899235
3.340485 -0.24962509 -0.98399293 0.14940396 -2.5860827 4.142058 6.9870114 0.4784826
2.0873888 -1.9857711 -0.6908953 0.8821529 10.417201 10.6529665 -3.9061275 0.64252764
1.9656539 2.0865188 -0.7920817 -2.933187 -3.6443553 4.163808 0.06528078 -1.3967642
-5.824106 -1.5374354 0.49403256 -1.3024776 -2.2367394 3.1444132 2.5358155 -6.313504
2.4639764 0.6047981 2.0923092 -5.5208006 2.0670981 -0.8753349 0.31669483 0.03281248
5.780216 -2.3803456 0.6140152 -0.79030585 -4.546809 -3.5809104 -0.6980335 -6.9964824
-1.0795751 -1.15272 1.6437299 -1.4147983 -3.5770614 -0.92851394 4.1796165 -1.1855673
0.0066664647 1.2570857 12.813145 -0.6235091 -2.0515454 -5.741005 0.68248487 7.706867
6.473423 -4.41613 -8.916538 -2.0341444 -3.6902592 -1.8438148 11.7920885 -1.0794203
3.4613988 -0.5808706 4.145802 3.1423664 0.27754912 -9.153679 0.6149219 8.158469
-3.7903547 1.2179368 8.497055 -5.1001825 6.9827805 -3.901529 2.5473757 14.334567
-1.2136347 -3.7216866 1.4390794 0.51710105 0.8652375 -0.24490222 -4.644206 0.21748625
