LSTM_Model.pt (torch, 832098 bytes, 10 tensors)

rnn.weight_ih_l0 f4 [512, 15]
-0.12304428 -0.08061803 0.065028526 0.13573778 -0.32420847 0.059653025 0.46590334 -0.1506984
1.7067859 -0.19390954 -0.2284633 0.26757872 0.02768556 1.1658875 1.2832031 -0.93348587
-0.54240674 -0.008618429 -0.011888745 -0.15218179 2.4641452 0.25983334 0.1420835 0.688911
-0.2862798 -0.93411684 -0.40227145 -0.008823663 0.72624886 0.19961601 1.1199859 0.19793376
-0.07306696 1.00904 0.5687016 0.26882204 0.47710967 -1.7058853 0.064192474 0.05173894
-0.16686732 -1.5493349 0.046611793 -0.23864809 -0.69728565 0.48361266 1.6867654 -0.05360511
-0.163768 0.21516927 0.387416 2.0810995 -0.76212364 0.89947057 0.5269556 0.09577212
0.99720675 0.07140041 0.2165419 0.40867758 0.16453487 0.5587358 0.0031293184 -1.5227672
0.301215 -0.19822676 -0.053059593 0.5006436 -0.023203118 -0.35113162 -0.5620976 -0.7575993
0.01783324 -1.0234495 -1.763532 -0.7087624 0.004163872 0.015000284 0.57034665 -0.7755338
0.11435909 0.35349584 -0.5079493 1.1039158 0.30683097 -1.2355425 -0.8070647 -0.0561341
0.5921479 0.12280888 0.742945 0.39005357 -0.033347398 -0.0049897223 -0.17762922 -0.058275767
-2.223774 0.3435701 0.7381983 0.31230652 -0.81498694 0.034137663 0.069028415 -0.37788177
-0.30125627 -0.060137577 0.8549896 0.06870822 0.009821479 0.3855686 0.7169151 -0.67217284
-0.89069545 -0.75870895 0.45233515 0.13910948 0.69243675 0.028673604 1.1885209 1.6291205
-1.5669234 -0.7358481 0.07813015 -0.48097438 0.0842081 0.40110257 0.46955845 1.2169529
-0.5196298 -1.5910285 -0.22348128 -0.9102838 0.048781537 -0.14216992 -0.15692806 -0.09192797
1.3551775 -0.081673265 -0.0067380383 0.31348866 0.12043415 -0.040201396 0.13802645 0.29569128
-0.0795208 0.5571159 0.9357584 -0.00016165525 0.7730808 2.1853976 0.19160579 0.3634513
0.05994741 0.7496059 -1.1660365 -0.11081283 0.62750536 0.78172255 1.2163521 0.4368573
1.79871 1.162753 0.047429346 0.17730528 -0.045464654 -0.85390764 0.46107468 0.045815505
1.1500438 1.0882914 0.49731082 -1.0755247 1.3737056 0.42605695 -0.19067189 -0.1301301
0.4137552 0.034809165 0.301509 0.17589945 -2.1057112 0.105227984 -0.024499193 0.06797582
0.2097825 0.061081115 -0.68594646 0.03240782 0.025159009 -0.20648463 -0.3110087 -0.10116937
-0.039949194 0.07535981 -0.10544983 -0.39951423 0.10473422 -0.07507638 -0.032920245 0.5041886
0.7178936 0.5228848 0.3545065 -0.07798565 0.8122075 -0.9449642 0.1869496 0.013668962
-0.2928939 -0.28911793 1.1195302 1.0864872 0.06140635 -0.13086535 -0.46285638 -0.31338984
-0.5695535 -0.4280642 -0.26099974 -0.23054473 0.10684328 -1.5969597 0.084164985 -0.23103161
-0.8093839 -1.1225718 0.058333725 -0.08501673 1.0207957 -0.12424467 0.62343234 -1.2717134
0.03160305 0.86483157 -0.69681597 -0.8655215 0.15941948 -0.026127242 0.12382822 -0.40196905
-2.2795472 0.16071317 0.0541647 0.08778074 0.119110376 -0.89641637 0.12827362 -0.5507966
-0.034317993 -0.3262457 0.1581917 0.047555607 -0.018448666 -0.5018475 -0.64059365 1.0938728
00000000: a4fe fbbd 111b a5bd ad2d 853d d8fe 0a3e
00000010: a7fe a5be bb56 743d e28a ee3e ae50 1abe
00000020: f677 da3f 3990 46be 49f2 69be 1400 893e
00000030: d4cc e23c cd3b 953f 0040 a43f eef8 6ebf
00000040: 2bdb 0abf 5034 0dbc 03c9 42bc 8bd5 1bbe
00000050: 8eb4 1d40 e008 853e 567e 113e 795c 303f
00000060: 4493 92be 4822 6fbf 86f6 cdbe 2091 10bc
00000070: 72eb 393f 2468 4c3e b35b 8f3f 26af 4a3e
00000080: 21a4 95bd 3928 813f 6e96 113f 0ba3 893e
00000090: b847 f43e 735a dabf 5877 833d 36ec 533d
000000a0: 44df 2abe 9b50 c6bf 02ec 3e3d 2a60 74be
000000b0: 5081 32bf 149c f73e eee7 d73f 0891 5bbd
000000c0: ccb2 27be 5555 5c3e 645b c63e bc30 0540
000000d0: 891a 43bf b443 663f 90e6 063f 2c24 c43d
000000e0: f148 7f3f 613a 923d 29bd 5d3e 303e d13e
000000f0: d47b 283e 4f09 0f3f 4015 4d3b 09ea c2bf
00000100: da38 9a3e f5fb 4abe 0455 59bd 2e2a 003f
00000110: 7714 bebc 86c7 b3be a1e5 0fbf 07f2 41bf
00000120: 0417 923c 6500 83bf 6bbb e1bf 7471 35bf
00000130: 1771 883b c0c3 753c 3d02 123f 6289 46bf
00000140: 1935 ea3d 68fd b43e f708 02bf 1d4d 8d3f
00000150: f318 9d3e 4226 9ebf cb9b 4ebf dfec 65bd
00000160: 0197 173f 3983 fb3d a531 3e3f 1ab5 c73e
00000170: 4897 08bd d380 a3bb 6fe4 35be 92b2 6ebd
00000180: 5052 0ec0 6ce8 af3e 90fa 3c3f a4e6 9f3e
00000190: fca2 50bf efd3 0b3d c55e 8d3d b879 c1be
000001a0: 433e 9abe d252 76bd 99e0 5a3f e5b6 8c3d
000001b0: 45ea 203c 3f69 c53e bf87 373f 8513 2cbf
000001c0: 9e04 64bf c03a 42bf 7998 e73e b772 0e3e
000001d0: 8943 313f e8e4 ea3c 7421 983f 0587 d03f
000001e0: f290 c8bf 8b60 3cbf b302 a03d 4642 f6be
000001f0: 4c75 ac3d 515d cd3e f769 f03e 1dc5 9b3f
00000200: 7506 05bf d2a6 cbbf 47d8 64be 5c08 69bf
00000210: 26cf 473d fe94 11be c0b1 20be bb44 bcbd
00000220: 7576 ad3f 5044 a7bd c3ca dcbb 9681 a03e
00000230: 2ea6 f63d 38aa 24bd ce56 0d3e d964 973e
00000240: cddb a2bd 269f 0e3f dd8d 6f3f 0082 29b9
00000250: a0e8 453f 8edd 0b40 4f34 443e 4a16 ba3e
00000260: 6a8b 753d 2ce6 3f3f af40 95bf d6f1 e2bd
00000270: 31a4 203f f81e 483f 6db1 9b3f c3ab df3e
00000280: 213c e63f 17d5 943f 4645 423d 848f 353e
00000290: 2539 3abd b199 5abf fb11 ec3e 0aa9 3b3d
000002a0: a334 933f 224d 8b3f 869f fe3e cbaa 89bf
000002b0: 96d5 af3f 2324 da3e 7e3f 43be d340 05be
000002c0: b9d7 d33e 0e94 0e3d 635f 9a3e fc1e 343e
000002d0: f9c3 06c0 c581 d73d 88b2 c8bc e836 8b3d
000002e0: 39d1 563e 3130 7a3d 309a 2fbf 10be 043d
000002f0: 441a ce3c b570 53be 883c 9fbe e331 cfbd
00000300: c4a1 23bd 3e56 9a3d 15f6 d7bd 218d ccbe
00000310: e57e d63d a5c1 99bd 61d7 06bd 8112 013f
00000320: e0c7 373f c7db 053f e081 b53e f1b6 9fbd
00000330: d5ec 4f3f 2ce9 71bf b76f 3f3e c8f3 5f3c
00000340: 30f6 95be 4407 94be c44c 8f3f 0312 8b3f
00000350: 3a85 7b3d 9101 06be 83fb ecbe a274 a0be
00000360: 42ce 11bf 3b2b dbbe c2a1 85be eb13 6cbe
00000370: a6d0 da3d 2d69 ccbf b15e ac3d 8d93 6cbe
00000380: c933 4fbf 6fb0 8fbf 58ef 6e3d 401d aebd
00000390: 6fa9 823f fd73 febd 4399 1f3f 81c7 a2bf
000003a0: 3372 013d 9a65 5d3f 8862 32bf d192 5dbf
000003b0: dc3e 233e cc08 d6bc a699 fd3d e3ce cdbe
000003c0: 1ae4 11c0 fe91 243e cedb 5d3d 63c6 b33d
000003d0: 24f0 f33d 8b7b 65bf 295a 033e 0201 0dbf
000003e0: 0691 0cbd ad09 a7be 01fd 213e abc9 423d
000003f0: a821 97bc 1479 00bf f2fd 23bf 0604 8c3f

rnn.weight_hh_l0 f4 [512, 128]
-0.007991008 0.014159068 0.07974125 -0.014641233 -0.08666041 0.007043138 -0.03316486 -0.035992134
-0.06433575 0.06753922 -0.035836346 0.0099831745 0.06695514 -0.055139847 0.05370214 0.04715594
0.0026311427 -0.066383496 -0.048398446 0.008052386 -0.07103982 -0.06583315 -0.045481674 0.07121471
0.018570617 -0.024414197 0.07055939 -0.08256 -0.07526952 -0.0071597174 0.054126807 0.07438705
-0.06367182 0.04287792 0.004418969 0.03963188 0.078498535 -0.064184636 0.0012937412 -0.075336814
0.023563236 -0.044177935 -0.012491904 -0.027256958 -0.07766834 0.0800165 -0.040393896 0.017199539
-0.051089913 0.046548285 -0.022086263 0.07973624 -0.0636191 -0.030635439 -0.027684461 -0.005734943
0.05502414 0.062027715 0.019774772 -0.03913145 0.04231628 -0.06338439 -0.047630228 0.019819178
0.0566136 -0.015650555 0.060854323 0.07860065 0.07228423 -0.016094618 -0.00094725937 0.032889873
-0.0471014 0.08574002 -0.037445694 0.013556279 0.07738266 -0.047728997 0.028534956 0.040522136
-0.014442988 -0.019359045 -0.037337188 0.0046074092 0.016116753 0.04927791 -0.078983024 -0.055409048
0.08480508 -0.049029388 -0.04979594 -0.0136408135 -0.07321858 0.058284737 0.023550227 0.021497771
-0.07521898 -0.049468324 0.08103394 0.008099645 0.0026534423 -0.03200598 -0.08189695 0.05002839
-0.07216051 0.015170492 -0.062348686 -0.008509956 0.037299804 0.035768196 0.046243034 0.04172132
-0.0059238374 -0.021963388 0.083477624 0.039740495 -0.03077609 -0.05036007 -0.056841556 -0.040291227
0.035367012 0.0130492225 -0.045845296 -0.0026348606 -0.035260633 0.05007931 0.031682767 0.041139968
-0.024869263 -0.033261765 0.053603016 0.057602428 -0.07125006 0.087195314 0.034836322 0.063677646
-0.0621642 0.022994712 -0.0740577 0.055174135 -0.044505943 0.046839453 0.028583646 0.006046459
-0.053446524 -0.036352605 0.03988362 0.057593413 0.06858256 0.0724222 0.018040508 0.035490945
0.066094644 0.077760555 0.0025168434 0.06959865 -0.057065513 0.020911686 0.08295571 0.06593334
0.0691442 -0.07216344 -0.001333408 -0.025791585 0.08607926 0.06650869 -0.059702076 0.045267753
-0.08829166 -0.04382913 -0.017201938 0.002276741 0.018959329 0.05539448 0.055009745 0.08465435
-0.0715258 -0.0029043257 -0.03425055 -0.06256071 -0.056054633 0.018937424 0.033369064 0.041097365
-0.07111227 0.04014816 0.08073001 0.061341517 -0.065889865 0.005712323 -0.023263209 -0.052107938
-0.057816237 -0.049798515 0.029130638 0.07889042 -0.07045105 0.055977516 -0.07984849 0.07791775
0.022537798 -0.059753925 0.05410271 0.060540326 -0.07723882 -0.01596085 0.037790187 0.06456032
-0.04949259 -0.0830756 -0.02653575 0.078342564 0.004727967 -0.07164633 0.026899323 -0.0801599
-0.06808522 0.08594362 0.04397445 -0.053471535 -0.005015917 -0.02361703 -0.03946436 0.039320208
0.0033814907 -0.046813253 -0.07766287 -0.020721056 -0.019206442 -0.019180633 0.01410377 0.075652145
0.01839614 0.026033938 0.052123733 -0.043122705 0.0066867024 0.060553037 -0.006205164 -0.04408946
-0.06827673 -0.053387024 -0.07262908 0.08695384 -0.07019042 0.054652296 0.035306647 -0.008315131
-0.081458196 -0.04963336 0.019122586 0.025277972 -0.007892072 -0.008638389 -0.0058511496 -0.07080689
00000000: b8ec 02bc 70fb 673c 614f a33d c8e1 6fbc
00000010: 037b b1bd 20ca e63b e0d7 07bd 7d6c 13bd
00000020: 76c2 83bd 0152 8a3d 22c9 12bd 7890 233c
00000030: c71f 893d 52da 61bd c6f6 5b3d 9626 413d
00000040: 406f 2c3b 12f4 87bd 733d 46bd 28ee 033c
00000050: 537d 91bd 88d3 86bd fe4a 3abd 05d9 913d
00000060: 6821 983c 4800 c8bc 7181 903d 3815 a9bd
00000070: e826 9abd 109c eabb 12b4 5d3d 3d58 983d
00000080: 5f66 82bd c2a0 2f3d 00cd 903b 0a55 223d
00000090: d7c3 a03d 3c73 83bd c092 a93a 304a 9abd
000000a0: b007 c13c ecf3 34bd d8aa 4cbc fc49 dfbc
000000b0: 9410 9fbd b1df a33d 1274 25bd 0ce6 8c3c
000000c0: a843 51bd 6aa9 3e3d 40ee b4bc c14c a33d
000000d0: bb4a 82bd 2cf7 fabc 86ca e2bc 30ec bbbb
000000e0: fe60 613d c610 7e3d b4fe a13c 4d48 20bd
000000f0: d653 2d3d adcf 81bd ea17 43bd d45b a23c
00000100: aae3 673d 9835 80bc 6242 793d 61f9 a03d
00000110: c109 943d dcd8 83bc 8051 78ba 88b7 063d
00000120: 66ed 40bd 7798 af3d a860 19bd 281b 5e3c
00000130: cd7a 9e3d 7b7f 43bd 24c2 e93c 8afa 253d
00000140: 48a2 6cbc dc96 9ebc e1ee 18bd c0f9 963b
00000150: 4807 843c a2d7 493d dac1 a1bd 99f4 62bd
00000160: 49ae ad3d 0ad3 48bd d4f6 4bbd b87d 5fbc
00000170: 9ff3 95bd fabb 6e3d 68ec c03c 181c b03c
00000180: 690c 9abd 4c9f 4abd 1ff5 a53d 60b4 043c
00000190: 60e5 2d3b b418 03bd 97b9 a7bd 92ea 4c3d
000001a0: e4c8 93bd a88d 783c 5661 7fbd 586d 0bbc
000001b0: aec7 183d ac81 123d 5669 3d3d fae3 2a3d
000001c0: c01c c2bb 90ec b3bc 51f6 aa3d eec6 223d
000001d0: 241e fcbc 5c46 4ebd b1d2 68bd 6a08 25bd
000001e0: 00dd 103d 68cc 553c 47c8 3bbd a0ad 2cbb
000001f0: 746d 10bd f61f 4d3d cac5 013d 6282 283d
00000200: a0ba cbbc 7d3d 08bd d68e 5b3d 86f0 6b3d
00000210: 8deb 91bd 7593 b23d 88b0 0e3d 6d69 823d
00000220: e39f 7ebd 685f bc3c 90ab 97bd 46fe 613d
00000230: dd4b 36bd bada 3f3d 4028 ea3c 6021 c63b
00000240: beea 5abd 78e6 14bd 025d 233d 12e7 6b3d
00000250: 0375 8c3d 1752 943d b0c9 933c f45e 113d
00000260: a15c 873d ed40 9f3d a0f1 243b bd89 8e3d
00000270: 87bd 69bd fc4e ab3c afe4 a93d 0f08 873d
00000280: 799b 8d3d 6dca 93bd c0c5 aeba e048 d3bc
00000290: 534a b03d b535 883d 2a8a 74bd ae6a 393d
000002a0: 42d2 b4bd 2c86 33bd 14eb 8cbc 6035 153b
000002b0: 9850 9b3c 52e5 623d e651 613d 435f ad3d
000002c0: 1e7c 92bd 8056 3ebb 4e4a 0cbd d41f 80bd
000002d0: 8b99 65bd a822 9b3c 00ae 083d b655 283d
000002e0: 4fa3 91bd 6672 243d c755 a53d 3e41 7b3d
000002f0: 44f1 86bd 702e bb3b 7c92 bebc 226f 55bd
00000300: b8d0 6cbd 87f9 4bbd 60a3 ee3c 4d91 a13d
00000310: a448 90bd ae48 653d 9b87 a3bd 5793 9f3d
00000320: 30a1 b83c 88c0 74bd ce9a 5d3d 22f9 773d
00000330: 632f 9ebd 54c0 82bc e2c9 1a3d 3338 843d
00000340: beb8 4abd 8a23 aabd 8061 d9bc 1172 a03d
00000350: 10ed 9a3b 50bb 92bd f85b dc3c e02a a4bd
00000360: 4470 8bbd 3503 b03d 8e1e 343d f804 5bbd
00000370: 905c a4bb 8078 c1bc 61a5 21bd 3a0e 213d
00000380: 009c 5d3b 41bf 3fbd b60d 9fbd 34bf a9bc
00000390: d456 9dbc b420 9dbc 8013 673c 83ef 9a3d
000003a0: 80b3 963c 2045 d53c b27f 553d 6fa1 30bd
000003b0: 201c db3b 7606 783d b054 cbbb 2697 34bd
000003c0: acd4 8bbd 5aac 5abd 8ebe 94bd db14 b23d
000003d0: ffbf 8fbd 16db 5f3d b49d 103d 303c 08bc
000003e0: 8ed3 a6bd 5a4c 4bbd f8a6 9c3c c013 cf3c
000003f0: c04d 01bc 0888 0dbc 00bb bfbb 3403 91bd

rnn.bias_ih_l0 f4 [512]
0.10912172 0.35967103 0.75833046 0.45764008 -0.22639766 0.52773243 0.4848399 0.19311735
0.23362604 0.23849863 0.59283745 0.6430234 0.7473974 0.7311 0.5453569 0.40032506
0.3054785 1.2765206 0.2610259 0.3618938 0.7399637 0.25507265 0.34016436 0.4947423
0.49050432 0.22318447 0.43697202 0.14561993 1.0535115 0.36137053 0.3537297 -0.041292015
0.06504009 0.053382874 0.20725484 0.54744995 0.6485295 0.64840275 0.32802022 0.41574058
0.5543991 0.94718075 0.10282337 0.6998858 0.193333 0.18993656 0.23317231 -0.097729675
0.7834363 0.66168904 0.8570251 0.3464435 -0.095496446 0.12519696 0.39573115 0.15137681
0.511805 0.37895077 0.6167917 0.5138821 1.1116445 0.2786765 -0.53250986 0.55015343
0.47125822 0.9711621 0.79040223 -0.3867256 0.18757276 -0.14978911 0.36091015 0.24800839
0.012238477 -0.28836882 0.26719823 0.60095865 0.325272 0.2530501 0.2810579 0.57450056
-0.1594739 0.712959 0.6425105 1.0602337 0.842329 0.70748323 0.8202939 0.75302994
0.6904781 0.8927025 0.016369468 0.05059355 -0.14721233 0.21963447 0.46252424 0.45573476
0.76850086 0.59337986 0.23781016 0.0017568191 0.50123566 1.6425078 -0.011706217 0.23230962
0.52680933 0.105134875 0.54113185 0.53255826 0.2501302 0.5703574 0.88665223 -0.05733899
0.9709964 0.3037604 0.6494166 0.6898251 0.41730455 0.19932918 0.43866885 0.41653535
0.96645355 0.50244087 -0.1408813 0.42903027 1.2159584 0.35480386 0.6583744 0.01976226
0.013238832 0.059701167 -0.069758795 -0.062773645 0.018392801 0.014202066 -0.0040793493 0.041247703
-0.0144309625 -0.0020423308 0.029016323 -0.0648397 -0.045679957 -0.05679175 -0.004320264 0.017070875
0.035887443 0.05318699 -0.004880309 0.05196532 0.0074432194 -0.052854232 0.053460635 0.06853219
0.013966285 0.0559616 -0.07533762 0.07847675 -0.08021701 0.08080862 -0.004192449 0.008911751
0.039724313 -0.025713563 -0.059603922 -0.01896678 0.023877412 -0.0071311295 0.022840485 -0.018963628
-0.047843974 -0.065188766 0.075280406 0.007612057 -0.05946564 -0.060829 -0.017443337 -0.07855332
-0.0011445805 -0.014658473 0.07752616 0.024217092 0.06062699 0.0862033 -0.06811449 -0.014021479
-0.073283724 -0.032554835 0.06975149 0.006222695 0.00964652 -0.03893845 -0.07053661 -0.063908204
-0.021277256 -0.08533647 -0.054236997 -0.07754471 0.05734142 0.031478852 0.04574097 0.060532786
0.05160352 0.043969966 -0.011359774 -0.014138289 -0.073272824 -0.005264595 0.07531086 -0.04633425
-0.06296123 -0.07885436 0.03195399 -0.041284144 0.06918847 0.004101798 -0.021898523 -0.08037366
-0.028662566 0.025816165 0.0014164895 -0.054442473 0.064258955 -0.060401388 -0.07234518 0.06763884
0.0858419 0.074319415 -0.0149263665 0.012093678 0.07183611 -0.074329324 -0.014387615 0.017263956
0.057243146 0.018535122 0.028232992 0.06338448 0.03458737 0.010528095 0.054014556 0.085325696
-0.0809091 0.0071699917 0.07613028 0.0863085 -0.06669666 -0.020278648 -0.08104224 -0.04454848
-0.04390941 0.04588493 -0.08505428 -0.005188033 0.071676545 -0.08345963 -0.024429724 -0.038421594
00000000: 357b df3d cd26 b83e f221 423f cd4f ea3e
00000010: cad4 67be 7919 073f ef3c f83e 8ec0 453e
00000020: aa3b 6f3e fc38 743e 32c4 173f 2e9d 243f
00000030: 7055 3f3f 5f29 3b3f 839c 0b3f 68f7 cc3e
00000040: ae67 9c3e 0765 a33f 30a5 853e 254a b93e
00000050: 436e 3d3f e298 823e 062a ae3e dd4e fd3e
00000060: 6223 fb3e 788a 643e ccba df3e 641d 153e
00000070: 77d9 863f 8f05 b93e 0f1c b53e d121 29bd
00000080: bd33 853d 00a8 5a3d 9d3a 543e ae25 0c3f
00000090: 0806 263f b9fd 253f 44f2 a73e f3db d43e
000000a0: 19ed 0d3f 707a 723f 0f95 d23d b72b 333f
000000b0: 16f9 453e bb7e 423e b9c4 6e3e 7f26 c8bd
000000c0: 488f 483f 7464 293f ff65 5b3f 0b61 b13e
000000d0: a493 c3bd a233 003e 469d ca3e 8602 1b3e
000000e0: a705 033f d605 c23e 10e6 1d3f c78d 033f
000000f0: 5e4a 8e3f b0ae 8e3e 9152 08bf dbd6 0c3f
00000100: c248 f13e 149e 783f cd57 4a3f e600 c6be
00000110: 1313 403e 5162 19be 37c9 b83e e9f5 7d3e
00000120: e583 483c 14a5 93be 35ce 883e 6dd8 193f
00000130: 0d8a a63e c88f 813e d2e6 8f3e 7812 133f
00000140: 204d 23be 7b84 363f 917b 243f bdb5 873f
00000150: e0a2 573f 9f1d 353f c8fe 513f 92c6 403f
00000160: 2cc3 303f 2788 643f 4319 863c 2f3b 4f3d
00000170: d4be 16be dce7 603e facf ec3e 1156 e93e
00000180: 79bc 443f bee7 173f 8284 733e 1145 e63a
00000190: fb50 003f b23d d23f 6fcb 3fbc 93e2 6d3e
000001a0: fadc 063f f450 d73d 9e87 0a3f bd55 083f
000001b0: 1111 803e f102 123f a4fb 623f 4adc 6abd
000001c0: 3893 783f 7c86 9b3e 2b40 263f 6198 303f
000001d0: f1a8 d53e f31c 4c3e 3499 e03e 1f44 d53e
000001e0: 8069 773f f79f 003f 3043 10be dba9 db3e
000001f0: 86a4 9b3f daa8 b53e 3a8b 283f 77e4 a13c
00000200: b0e7 583c 3689 743d b3dd 8ebd 788f 80bd
00000210: 80ac 963c c8af 683c 10ac 85bb 5af3 283d
00000220: d86f 6cbc a0d8 05bb a4b3 ed3c adca 84bd
00000230: e81a 3bbd 779e 68bd 0091 8dbb 38d8 8b3c
00000240: b6fe 123d 9ada 593d 00eb 9fbb 96d9 543d
00000250: 40e6 f33b ae7d 58bd 8af9 5a3d 9b5a 8c3d
00000260: d8d2 643c fe37 653d 9c4a 9abd 6bb8 a03d
00000270: d148 a4bd fd7e a53d d060 89bb 9802 123c
00000280: f6b5 223d 40a5 d2bc 3e23 74bd 3860 9bbc
00000290: 909a c33c 40ac e9bb f81b bb3c 9c59 9bbc
000002a0: 0bf8 43bd b081 85bd 9d2c 9a3d 906e f93b
000002b0: 3e92 73bd d427 79bd 54e5 8ebc 90e0 a0bd
000002c0: c005 96ba 182a 70bc 09c6 9e3d ec62 c63c
000002d0: 0254 783d 5b8b b03d 9c7f 8bbd 58ba 65bc
000002e0: c715 96bd 3858 05bd dfd9 8e3d c0e7 cb3b
000002f0: 700c 1e3c ed7d 1fbd 8075 90bd 4ee2 82bd
00000300: a44d aebc e3c4 aebd 9d27 5ebd c3cf 9ebd
00000310: d6de 6a3d f8ef 003d e25a 3b3d 3af1 773d
00000320: 365e 533d da19 343d 581e 3abc 48a4 67bc
00000330: 1010 96bd a082 acbb 953c 9a3d fcc8 3dbd
00000340: d1f1 80bd 657e a1bd 30e2 023d 9019 29bd
00000350: afb2 8d3d 6068 863b 8864 b3bc f29a a4bd
00000360: c2cd eabc 6c7c d33c 80a9 b93a 12ff 5ebd
00000370: 339a 833d 7267 77bd b629 94bd 3b86 8a3d
00000380: e1cd af3d c734 983d b88d 74bc 9024 463c
00000390: cf1e 933d f939 98bd 08ba 6bbc 246d 8d3c
000003a0: ca77 6a3d f8d6 973c e048 e73c b9cf 813d
000003b0: 7cab 0d3d 087e 2c3c 5e3e 5d3d 3dbf ae3d
000003c0: acb3 a5bd 40f2 ea3b 31ea 9b3d 83c2 b03d
000003d0: 4298 88bd 681f a6bc 79f9 a5bd 7878 36bd
000003e0: 5ada 33bd d6f1 3b3d f030 aebd 6000 aabb
000003f0: 27cb 923d e2ec aabd d820 c8bc f65f 1dbd

rnn.bias_hh_l0 f4 [512]
-0.032274637 0.44400403 0.64178944 0.49498156 -0.20694831 0.5523306 0.5819519 0.1468114
0.16070311 0.21468511 0.621881 0.68478954 0.90478396 0.79951173 0.635786 0.38435334
0.30363744 1.3320149 0.3160344 0.37945923 0.7468125 0.2680361 0.36265945 0.592531
0.5712977 0.11360479 0.46132666 0.010393642 1.0976642 0.28671834 0.3947617 0.054868054
-0.019085618 0.16493006 0.3462036 0.6224766 0.5611921 0.5705934 0.29780954 0.4916512
0.48609048 0.87290895 0.08408641 0.7743911 0.23412907 0.17192589 0.26900998 0.030114034
0.7717627 0.6885574 0.74448115 0.42566594 -0.019922944 0.06762449 0.43573308 0.25308704
0.5541375 0.33116317 0.6325077 0.50402015 1.1147935 0.23588338 -0.4616737 0.3939616
0.4625613 0.9963293 0.6791261 -0.35128218 0.3251038 -0.18840213 0.3097457 0.31794947
0.00046401838 -0.30566478 0.2727079 0.6764483 0.3276339 0.24795693 0.17847985 0.5405555
-0.015374969 0.8165298 0.76374274 1.0983702 0.9050729 0.68630403 0.76222265 0.6101657
0.72689056 0.7432073 0.11612378 0.14943095 -0.16784161 0.2574285 0.49269268 0.45292684
0.66296715 0.58178204 0.3877749 0.016798133 0.43627352 1.684175 0.042833902 0.20057796
0.67342865 0.2274651 0.5330789 0.59767467 0.25372934 0.40376794 0.8480208 0.015217946
0.97819734 0.20400336 0.6007499 0.7143155 0.37731704 0.26525444 0.40761614 0.3832313
0.92636096 0.44595733 -0.19700429 0.2921231 1.323031 0.4309178 0.6711266 0.10869326
0.020240761 0.0060648173 -0.077578925 0.08516859 -0.06585674 0.008150719 -0.055086076 -0.07819887
0.019633606 0.048282318 0.03554187 -0.058406882 -0.023479268 0.080092825 0.058545522 -0.05401387
0.007655248 -0.0026889443 0.04902949 0.08014194 0.04767374 0.06296507 -0.075552106 -0.06342535
-0.08217371 -0.016025782 -0.03730899 -0.024819933 0.029872969 -0.009020977 -0.08738579 0.03202544
0.06847251 -0.058707777 0.06598171 -0.0063295066 -0.06250094 0.083508156 -0.058236808 -0.026373304
0.015800148 -0.04261963 -0.038781002 -0.062220823 -0.05876653 -0.056009516 0.08637581 0.065952905
-0.02007372 0.055588506 0.02485954 0.076179974 -0.074710704 0.019526169 -0.08692071 0.0019172207
0.04850579 -0.033544328 0.06429119 -0.060082205 -0.024649613 -0.038079552 0.0565966 0.08822235
-0.061596446 -0.047432326 -0.04718371 0.08393312 -0.087193854 -0.04891167 -0.042872522 0.0030121207
0.071553804 -0.027570497 -0.02807375 0.056178577 0.027913518 -0.07663656 -0.05334237 0.045055576
0.010050535 -0.00084227324 0.08433566 0.07384508 0.07676854 -0.083588675 0.049355887 -0.047861055
0.07692724 0.03381621 0.019708164 -0.08364278 0.04985205 0.001648806 -0.054037295 -0.038972147
0.019358024 0.053160094 0.071255244 0.029428728 -0.0058736578 0.035464063 0.010856114 0.07406332
0.004618399 0.055198945 -0.067977175 0.019851506 -0.044654395 -0.024530254 -0.032522183 -0.0456117
0.05180993 -0.054098997 0.038199507 -3.941357e-06 -0.038743448 -0.063481994 0.006309606 0.06299531
-0.04261022 0.030909665 0.028823048 -0.0074765384 -0.075861774 0.030194595 -0.08445013 -0.017037928
00000000: 6932 04bd 7f54 e33e 504c 243f 396e fd3e
00000010: 42ea 53be 8a65 0d3f cdfa 143f ba55 163e
00000020: 5b8f 243e 6ad6 5b3e 9833 1f3f 5e4e 2f3f
00000030: ec9f 673f cdac 4c3f dfc2 223f f6c9 c43e
00000040: 5e76 9b3e 777f aa3f 43cf a13e 7b48 c23e
00000050: 1b2f 3f3f 073c 893e 80ae b93e 1db0 173f
00000060: 9140 123f a1a9 e83d 0233 ec3e 184a 2a3c
00000070: 4380 8c3f bfcc 923e 351e ca3e 53bd 603d
00000080: 7159 9cbc 6de3 283e 9941 b13e a05a 1f3f
00000090: 49aa 0f3f 6912 123f 7e7a 983e b5b9 fb3e
000000a0: dae0 f83e f676 5f3f 7f35 ac3d 7f3e 463f
000000b0: 88bf 6f3e 570d 303e adbb 893e b5b1 f63c
000000c0: 3e92 453f 4c45 303f 5196 3e3f e3f0 d93e
000000d0: 7135 a3bc b57e 8a3d 6818 df3e a094 813e
000000e0: f5db 0d3f 388e a93e 06ec 213f 7707 013f
000000f0: 8eb1 8e3f 6a8b 713e 7f60 ecbe 56b5 c93e
00000100: d6d4 ec3e 700f 7f3f 35db 2d3f 42db b3be
00000110: 0174 a63e 7dec 40be fd96 9e3e 46ca a23e
00000120: 7e47 f339 1880 9cbe 5fa0 8b3e b72b 2d3f
00000130: a1bf a73e 6ce8 7d3e 6cc3 363e d861 0a3f
00000140: 4be7 7bbc 1908 513f a584 433f 6597 8c3f
00000150: dcb2 673f 9fb1 2f3f 0621 433f d233 1c3f
00000160: 8015 3a3f d542 3e3f 4ed2 ed3d 6d04 193e
00000170: acde 2bbe abcd 833e 3742 fc3e 07e6 e73e
00000180: 37b8 293f abef 143f 6f8a c63e 3d9c 893c
00000190: 3e5f df3e 0c93 d73f 9a72 2f3d 4f64 4d3e
000001a0: d265 2c3f 9cec 683e dc77 083f 3501 193f
000001b0: d0e8 813e acba ce3e e417 593f b154 793c
000001c0: 246b 7a3f 42e6 503e bfca 193f 61dd 363f
000001d0: b32f c13e 6ecf 873e 10b3 d03e e536 c43e
000001e0: fe25 6d3f 8554 e43e 7ebb 49be 2991 953e
000001f0: 1459 a93f 42a1 dc3e f4ce 2b3f 929a de3d
00000200: f4cf a53c 60bb c63b b3e1 9ebd df6c ae3d
00000210: e6df 86bd 988a 053c f0a1 61bd bb26 a0bd
00000220: a8d6 a03c aec3 453d 5a94 113d 0e3c 6fbd
00000230: 9857 c0bc b507 a43d 6ecd 6f3d a63d 5dbd
00000240: e0d8 fa3b 0039 30bb 26d3 483d 7521 a43d
00000250: 8a45 433d d5f3 803d 10bb 9abd 26e5 81bd
00000260: b14a a8bd 8048 83bc 50d1 18bd 2c53 cbbc
00000270: 28b8 f43c b8cc 13bc 52f7 b2bd 1c2d 033d
00000280: 513b 8c3d 9177 70bd 6b21 873d c067 cfbb
00000290: 7e00 80bd 5306 ab3d b889 6ebd d40c d8bc
000002a0: 506f 813c ec91 2ebd d4d8 1ebd 43db 7ebd
000002b0: 2cb5 70bd 3c6a 65bd cde5 b03d 5112 873d
000002c0: a471 a4bc c6b0 633d 3ca6 cb3c 3f04 9c3d
000002d0: ed01 99bd 58f5 9f3c 7c03 b2bd 404b fb3a
000002e0: 02ae 463d c765 09bd 19ab 833d c218 76bd
000002f0: fced c9bc 4ef9 1bbd d6d1 673d ebad b43d
00000300: 8e4c 7cbd 6648 42bd b543 41bd 21e5 ab3d
00000310: b192 b2bd 9a57 48bd 199b 2fbd 0067 453b
00000320: cd8a 923d 86db e1bc ecfa e5bc 821b 663d
00000330: e4aa e43c a1f3 9cbd 877d 5abd 328c 383d
00000340: 00ab 243c 00cc 5cba 2db8 ac3d 173c 973d
00000350: d338 9d3d 8a30 abbd 6629 4a3d f409 44bd
00000360: 078c 9d3d de82 0a3d 0473 a13c e84c abbd
00000370: aa31 4c3d c01c d83a 3656 5dbd 42a1 1fbd
00000380: b894 9e3c 66be 593d 45ee 913d 8414 f13c
00000390: d077 c0bb c442 113d d8dd 313c 83ae 973d
000003a0: f055 973b 4a18 623d 9e37 8bbd a09f a23c
000003b0: 87e7 36bd acf3 c8bc fb35 05bd 55d3 3abd
000003c0: a636 543d e996 5dbd 1677 1c3d 0040 84b6
000003d0: 73b1 1ebd d902 82bd d0c0 ce3b af03 813d
000003e0: 0e88 2ebd 4436 fd3c 501e ec3c c0fd f4bb
000003f0: 6b5d 9bbd a85a f73c 31f4 acbd 2093 8bbc

rnn.weight_ih_l1 f4 [512, 128]
0.0404349 0.22453684 0.75249887 0.12673068 0.21627961 0.06575076 0.02115448 0.45757183
0.54504675 -0.12870418 0.8216437 -0.5540507 0.06014588 0.12445285 -0.8651919 0.8016641
0.6147573 -0.364335 0.97991323 -0.1801334 -0.56893766 0.17882587 -1.0575237 -0.39808884
0.2741634 -0.02032927 0.271312 -0.035043582 -0.054882817 -0.52381796 -0.13582703 0.048079554
0.24411407 0.013723054 0.10428338 -0.23556463 0.1800087 -0.12072871 0.6675091 0.5219936
0.046941463 -0.6771027 1.0952582 0.015094507 0.24588099 -0.011076561 0.27069578 0.5665308
-0.11552531 -0.46290123 -0.011611527 0.27831638 0.30631584 0.08561126 -0.098938644 -0.36443907
0.13503247 0.79994315 -0.02156688 0.60562366 -0.0315516 -0.82337195 0.2252452 0.92729497
0.22833893 0.3073135 -0.5195064 -0.13162376 -1.1930144 -0.28549588 -0.3147711 0.29991126
0.19880833 -0.12929547 0.03612328 0.54031926 -0.38654235 0.0027820703 0.27225283 0.045469753
0.13402137 -0.3206518 -1.1970904 -0.27563444 -0.35867035 0.42734876 -0.099063 0.5235739
-0.025092138 -0.27996176 0.3318259 -1.0339417 0.34562927 -0.20535034 -0.33841982 0.3384215
0.9988055 0.056789536 -0.28530088 0.14100157 0.58855605 -0.9682103 0.58843815 0.50039136
0.0871787 -0.18329068 0.6485349 -0.24047096 -1.0373648 -1.1073521 0.017036047 -0.114044905
0.8671859 -0.48293597 0.43140516 -0.077935755 0.6377462 0.3018323 -0.20196722 0.9632053
-0.53306603 0.47921184 -1.1202482 0.8820984 0.4611774 -0.12142972 -0.38969627 -0.139187
0.3956963 0.7087971 0.46929988 -0.2866459 1.3988173 0.38787305 0.5637301 -1.1351259
0.69697255 -0.17153159 0.23410024 0.31243777 -0.38583076 -0.54843414 -0.97346044 0.037788786
0.3398418 -0.4803684 -0.30895656 0.40989822 -1.0806694 -0.14647461 0.08132112 0.7126325
-0.6342599 -0.542476 -0.11742237 -0.044489842 0.49973267 -0.26834634 -0.43707505 0.34041423
-0.579596 0.5376392 -0.46826538 -1.1730069 0.6403809 0.32317427 -0.31232938 0.31758466
-0.59648377 -0.1273641 0.5321144 0.06769265 -0.08025955 -0.13683794 -1.0867361 0.020527313
0.42954385 0.13514063 -0.30816147 -0.40553126 0.1949172 -0.11215108 -0.067318276 0.4655129
0.31148395 0.28347492 -0.33744568 1.388902 0.52189475 -0.78565454 -1.132385 0.36040425
1.2164681 0.03435769 0.94995826 -0.18561766 0.13667579 -0.007592186 -0.6401806 0.19008905
-0.40219316 0.5444594 0.06964809 1.229929 0.33850244 0.35279727 0.09526036 -0.8744519
0.26260662 -0.41142204 0.059581347 0.052716445 0.24217851 -0.8214427 0.8072974 0.43023422
0.23878802 0.7809841 -0.7748326 0.042968675 0.5746278 -0.8655636 0.35539958 -0.5723234
-0.34959182 -0.10209185 1.1527987 -0.878391 0.07990899 -0.44762394 -0.30029014 0.58447737
-0.25153264 0.2972986 0.246268 0.23781116 -0.2911082 0.7590572 -0.031851392 -0.7803939
0.009015574 -0.34353346 0.6379641 0.9627233 0.60786635 0.7564785 0.046736013 -0.71327096
0.018140431 -0.05857643 -1.3226422 0.4379861 0.49689472 0.38397864 -0.33373064 -0.70779747
00000000: 119f 253d fcec 653e c4a3 403f b0c5 013e
00000010: 6778 5d3e 56a8 863d 294c ad3c db46 ea3e
00000020: 2f88 0b3f 07cb 03be 3e57 523f 44d6 0dbf
00000030: 875b 763d 23e1 fe3d 377d 5dbf dc39 4d3f
00000040: bc60 1d3f 1e8a babe 98db 7a3f e474 38be
00000050: e6a5 11bf 211e 373e f05c 87bf 4dd2 cbbe
00000060: 255f 8c3e 9289 a6bc 68e9 8a3e dc89 0fbd
00000070: cecc 60bd ef18 06bf 3e16 0bbe 11ef 443d
00000080: 0af9 793e a9d6 603c 8692 d53d db37 71be
00000090: 3354 383e 9d40 f7bd e0e1 2a3f 5fa1 053f
000000a0: b145 403d 9a56 2dbf 6c31 8c3f f34e 773c
000000b0: 3ac8 7b3e 777a 35bc a398 8a3e 2a08 113f
000000c0: 8998 ecbd 6401 edbe 463e 3ebc 7c7f 8e3e
000000d0: 6ed5 9c3e f554 af3d 58a0 cabd c297 babe
000000e0: f445 0a3e 13c9 4c3f 07ad b0bc 270a 1b3f
000000f0: 403c 01bd 81c8 52bf ada6 663e 3463 6d3f
00000100: aed1 693e 3258 9d3e 5ffe 04bf 61c8 06be
00000110: b2b4 98bf 842c 92be ad29 a1be f88d 993e
00000120: 6994 4b3e 0866 04be 01f6 133d 5d52 0a3f
00000130: e1e8 c5be 6553 363b b964 8b3e 7e3e 3a3d
00000140: e63c 093e 792c a4be 423a 99bf f51f 8dbe
00000150: a4a3 b7be 75cd da3e 8be1 cabd f008 063f
00000160: 078e cdbc 2657 8fbe 16e5 a93e 3458 84bf
00000170: 52f6 b03e 5c47 52be 5d45 adbe 9545 ad3e
00000180: b8b1 7f3f 259c 683d f512 92be b762 103e
00000190: 9cab 163f a1dc 77bf e2a3 163f a619 003f
000001a0: bf8a b23d 8db0 3bbe 6206 263f 053e 76be
000001b0: 5fc8 84bf b7bd 8dbf 2e8f 8b3c 6090 e9bd
000001c0: e5ff 5d3f 6243 f7be 23e1 dc3e c89c 9fbd
000001d0: 5643 233f c389 9a3e 7fd0 4ebe 9f94 763f
000001e0: 0477 08bf 415b f53e 4b64 8fbf 33d1 613f
000001f0: 721f ec3e 25b0 f8bd 4586 c7be 0987 0ebe
00000200: b598 ca3e ba73 353f 1348 f03e 40c3 92be
00000210: 720c b33f 4c97 c63e 9e50 103f ce4b 91bf
00000220: cb6c 323f faa5 2fbe f9b7 6f3e d8f7 9f3e
00000230: 9c8b c5be 2e66 0cbf b434 79bf 6ac8 1a3d
00000240: bfff ad3e d9f2 f5be 8e2f 9ebe 2ede d13e
00000250: 6053 8abf 71fd 15be b08b a63d 156f 363f
00000260: db5e 22bf b5df 0abf 247b f0bd fb3a 36bd
00000270: f6dc ff3e b164 89be 4dc8 dfbe c64a ae3e
00000280: 6760 14bf b9a2 093f 7bc0 efbe 1725 96bf
00000290: 01f0 233f 1977 a53e a3e9 9fbe 759a a23e
000002a0: 29b3 18bf bc6b 02be a638 083f 72a2 8a3d
000002b0: 1e5f a4bd 3f1f 0cbe 2b1a 8bbf e528 a83c
000002c0: 2ced db3e 4e62 0a3e 57c7 9dbe cba1 cfbe
000002d0: 6098 473e 77af e5bd 2ade 89bd b557 ee3e
000002e0: d37a 9f3e a023 913e aec5 acbe 8ac7 b13f
000002f0: e59a 053f a820 49bf fef1 90bf e886 b83e
00000300: 3ab5 9b3f a6ba 0c3d 7730 733f 8e12 3ebe
00000310: bdf4 0b3e dfc7 f8bb e0e2 23bf b4a6 423e
00000320: 43ec cdbe b161 0b3f a8a3 8e3d 506e 9d3f
00000330: 3150 ad3e d8a1 b43e dd17 c33d 14dc 5fbf
00000340: 6074 863e e9a5 d2be 920b 743d 33ed 573d
00000350: a5fd 773e 124a 52bf 0bab 4e3f a947 dc3e
00000360: d984 743e 93ee 473f 6e5b 46bf ecff 2f3d
00000370: cf1a 133f 9395 5dbf eff6 b53e c983 12bf
00000380: b3fd b2be 8815 d1bd e88e 933f 3cde 60bf
00000390: 53a7 a33d f72e e5be a1bf 99be 4fa0 153f
000003a0: e3c8 80be 8637 983e ae2d 7c3e c584 733e
000003b0: 220c 95be 9351 423f 9b76 02bd e5c7 47bf
000003c0: 0fb6 133c 9ee3 afbe 9e51 233f 0975 763f
000003d0: 219d 1b3f 93a8 413f 436e 3f3d ed98 36bf
000003e0: 3e9b 943c d7ed 6fbd 574c a9bf b73f e03e
000003f0: fc68 fe3e d998 c43e bede aabe 3732 35bf

rnn.weight_hh_l1 f4 [512, 128]
0.030045077 0.03379117 -0.07406463 -0.084013715 0.032250293 -0.004215382 -0.04912135 0.04905779
-0.07824664 -0.06200304 0.078964464 0.06751194 -0.071867496 -0.05251433 -0.02582527 -0.008981295
-0.042562183 -0.038339555 -0.031640597 0.023684777 0.05850116 -0.083590895 0.010028012 -0.04820571
0.0768019 0.049587257 0.05032759 -0.04697068 -0.06758798 -0.08581623 0.077823065 -0.035646707
0.013346091 0.0030623302 0.020197004 0.06325518 -0.019574061 -0.07903869 0.0022840127 0.058536686
-0.04956817 -0.0036633164 -0.053190924 -0.057028677 -0.08178356 0.0030299872 0.0041512027 0.036262326
0.0165115 -0.066698626 0.026173644 -0.053719025 0.03622219 0.065946944 0.03027352 0.07642005
0.029143028 0.05115304 -0.021836452 0.06396707 0.073527224 0.02880986 0.0014385656 0.059106596
-0.06115259 -0.07020648 0.07693403 0.049733065 0.079342715 -0.06380409 -0.052483983 -0.05685716
0.07511424 -0.08796985 -0.05937451 0.054744445 -0.0345444 0.06471605 0.04280039 0.06459341
-0.06122305 0.05678513 -0.059177134 0.0691809 -0.050111357 -0.07187522 0.051465593 0.06148625
0.07188528 0.063304655 0.036160998 0.0077979267 0.017506778 -0.07142054 0.0103659555 0.038036413
-0.034882113 0.05976344 -0.026318293 0.02120404 -0.07411706 0.077982865 0.05411472 -0.003992349
0.07880301 0.0853411 0.060753204 0.025867261 0.05386985 -0.07910352 -0.074771345 0.016700163
-0.050791513 0.0465732 0.0867654 0.061247073 -0.08266213 -0.05610379 0.0033874586 0.04423783
0.029955938 -0.01703056 -0.081667274 -0.0037761033 -0.04509343 -0.0061004832 -0.06853697 0.027680598
0.009396903 -0.06543784 0.04198522 -0.028056208 -0.010995336 -0.079024315 -0.007278055 -0.009953566
0.033398814 -0.030411944 0.017409831 0.04921905 -0.05825764 0.01958508 0.020040698 -0.04888475
0.06291019 -0.054650713 0.07972007 -0.06691894 0.0535878 0.070043005 0.0784569 0.075759955
-0.031648565 -0.07445955 -0.05842646 0.06612284 -0.023761213 0.011631161 -0.0871284 -0.033106316
0.047895662 0.05124619 0.064090095 -0.05568569 -0.06642084 -0.013956599 0.060795046 -0.070624135
0.075137936 -0.076787636 0.06654585 -0.07416918 -0.053266913 -0.013672978 -0.0769175 0.003655292
0.033343405 -0.08111171 0.059398673 0.039375372 -0.013461567 0.06836303 0.06146624 0.075799845
0.050446145 0.011199988 0.06729456 0.0044185147 -0.04446074 0.04445023 0.055735774 0.0799566
-0.0012500733 -0.015932053 0.024303019 0.07606178 0.039373077 -0.03179045 -0.045899004 0.024570338
-0.052300192 -0.038789786 -0.030836657 -0.024991341 -0.0416795 0.049958266 -0.014056459 -0.022972792
-0.07182197 0.040151842 -0.045849577 -0.040142838 -0.023010038 0.04045605 -0.024973802 -0.044309318
-0.072802246 0.023796447 0.027492106 0.03990785 -0.086245604 0.010370292 -0.030312307 0.030048594
-0.06829683 -0.032392822 -0.010703675 -0.025804743 0.023778409 -0.01138062 0.0065573677 0.025134295
0.077242605 0.043556623 -0.086868055 -0.02192977 -0.044294007 -0.04823514 -0.07383773 0.083309256
0.05158455 -0.065914996 0.061705224 0.06340379 0.07582196 0.0324032 -0.035232056 -0.005531162
-0.08763805 -0.07161175 0.08584172 0.07754881 -0.080124244 0.08825723 0.06321672 -0.039080918
00000000: 1821 f63c 9c68 0a3d 32af 97bd 620f acbd
00000010: e218 043d 3021 8abb 7833 49bd d2f0 483d
00000020: c63f a0bd e6f6 7dbd 1fb8 a13d b343 8a3d
00000030: 442f 93bd 4419 57bd 848f d3bc 4826 13bc
00000040: af55 2ebd f009 1dbd 9299 01bd 9406 c23c
00000050: ea9e 6f3d b431 abbd 884c 243c 5a73 45bd
00000060: 514a 9d3d 021c 4b3d 4e24 4e3d 5464 40bd
00000070: 916b 8abd 6bc0 afbd b361 9f3d 4802 12bd
00000080: 90a9 5a3c 60b1 483b 3074 a53c ef8b 813d
00000090: c859 a0bc 09df a1bd 60af 153b 2ac4 6f3d
000000a0: fe07 4bbd 4014 70bb bade 59bd e796 69bd
000000b0: 247e a7bd c092 463b d006 883b ce87 143d
000000c0: 2043 873c 4a99 88bd 1c6a d63c 7b08 5cbd
000000d0: b85d 143d 310f 873d 2c00 f83c 1d82 9c3d
000000e0: 5cbd ee3c da85 513d 5ce2 b2bc 2b01 833d
000000f0: 7195 963d a802 ec3c 408e bc3a c219 723d
00000100: 237b 7abd 6ac8 8fbd 978f 9d3d e6b4 4b3d
00000110: 6f7e a23d b8ab 82bd 72f9 56bd 0ee3 68bd
00000120: 7fd5 993d 8929 b4bd b032 73bd b63b 603d
00000130: 6e7e 0dbd d989 843d 764f 2f3d 8d49 843d
00000140: 05c5 7abd 8697 683d b963 72bd b7ae 8d3d
00000150: 9141 4dbd 5133 93bd 96cd 523d 02d9 7b3d
00000160: 9738 933d dfa5 813d 8e1d 143d c085 ff3b
00000170: 606a 8f3c ef44 92bd f8d5 293c 12cc 1b3d
00000180: 8ce0 0ebd 82ca 743d 7699 d7bc 18b4 ad3c
00000190: afca 97bd 7bb5 9f3d 66a7 5d3d 40d2 82bb
000001a0: 7963 a13d 51c7 ae3d 5ad8 783d 94e7 d33c
000001b0: a2a6 5c3d 0701 a2bd b821 99bd c8ce 883c
000001c0: c30a 50bd 8ac3 3e3d 0fb2 b13d 36de 7a3d
000001d0: c34a a9bd 16cd 65bd 2000 5e3b ba32 353d
000001e0: 2866 f53c ac83 8bbc 2c41 a7bd 8078 77bb
000001f0: e3b3 38bd 90e6 c7bb 1c5d 8cbd 6cc2 e23c
00000200: 78f5 193c 4604 86bd b2f8 2b3d 22d6 e5bc
00000210: c825 34bc 80d7 a1bd c07c eebb 4814 23bc
00000220: 32cd 083d 7822 f9bc 109f 8e3c ea99 493d
00000230: 909f 6ebd e470 a03c 642c a43c 603b 48bd
00000240: 0fd7 803d 6dd9 5fbd 4744 a33d cc0c 89bd
00000250: e27e 5b3d b572 8f3d 03ae a03d 0928 9b3d
00000260: eda1 01bd 407e 98bd 9550 6fbd 696b 873d
00000270: e0a6 c2bc a090 3e3c 6070 b2bd 7d9a 07bd
00000280: 3e2e 443d 86e7 513d ab41 833d ae16 64bd
00000290: a607 88bd 38aa 64bc 3a04 793d 63a3 90bd
000002a0: ebe1 993d d642 9dbd 3149 883d 03e6 97bd
000002b0: 682e 5abd a004 60bc ec86 9dbd a08d 6f3b
000002c0: 1893 083d e51d a6bd 064c 733d 1248 213d
000002d0: e88d 5cbc eb01 8c3d 06c4 7b3d f33c 9b3d
000002e0: 9ea0 4e3d 2880 373c bbd1 893d 30c9 903b
000002f0: 771c 36bd 7211 363d 324b 643d 49c0 a33d
00000300: 80d9 a3ba f083 82bc 2017 c73c 47c6 9b3d
00000310: aa45 213d b436 02bd 9800 3cbd bc47 c93c
00000320: ba38 56bd 0ae2 1ebd 289d fcbc a4ba ccbc
00000330: 20b8 2abd 0aa1 4c3d 104d 66bc 7031 bcbc
00000340: 6617 93bd 4276 243d c4cc 3bbd d16c 24bd
00000350: 8c7f bcbc 3eb5 253d dc95 ccbc b07d 35bd
00000360: 5819 95bd c4f0 c23c 2037 e13c 6a76 233d
00000370: 89a1 b0bd 28e8 293c 8451 f8bc 7828 f63c
00000380: 35df 8bbd 56ae 04bd 785e 2fbc 7864 d3bc
00000390: f0ca c23c c875 3abc 30df d63b 70e6 cd3c
000003a0: 5f31 9e3d 6e68 323d e1e7 b1bd 10a6 b3bc
000003b0: a26d 35bd 3692 45bd 3c38 97bd 0b9e aa3d
000003c0: 524a 533d 71fe 86bd 9ebe 7c3d d9d9 813d
000003d0: 8b48 9b3d 38b9 043d 7d4f 10bd c03e b5bb
000003e0: 947b b3bd 2ea9 92bd c9cd af3d e9d1 9e3d
000003f0: 2e18 a4bd 35c0 b43d c577 813d 5013 20bd

rnn.bias_ih_l1 f4 [512]
-0.08840722 -0.38668117 -0.017289815 0.22952399 -0.055247594 0.2943178 -0.3814319 -0.20840664
-0.19946562 0.027280001 0.3134417 0.5387842 -0.0556348 -0.4711899 -0.18425055 -0.6307115
0.033765215 0.05323897 -0.11090377 0.17253248 -0.32765087 -0.33803612 -0.06057761 -0.4657666
0.08611176 0.22210278 -0.122616716 0.04213758 -0.34615672 0.11114529 -0.46808183 -0.09535968
-0.5344028 0.124708585 -0.525371 0.28663123 -0.025451254 -0.18504232 -0.035206627 -0.50496846
0.30941933 -0.20221174 0.059049755 -0.21678253 -0.2896955 -0.83130985 0.25714818 0.19948405
0.0016877297 0.047082633 -0.21188506 -0.28763044 -0.09633765 0.055533923 0.17638443 -0.10725272
0.4207023 -0.07520336 -0.039373953 -0.46227556 0.046253715 -0.20761295 -0.16958007 -0.33420172
-0.3528241 -0.29884276 -0.3878506 -0.25977603 0.5431048 -0.44301823 0.314358 0.2683773
-0.3746225 0.23100701 -0.026374398 0.80613977 0.103055656 -0.4396089 0.4592069 0.21807702
-0.4333928 -0.11341602 -0.3074899 -0.19287026 -0.44968528 -0.10442025 0.18203108 0.43105525
-0.07107284 -0.30948466 -0.3655995 -0.4488816 0.20983127 0.21263556 0.16589844 0.76581466
-0.06944032 0.17897958 -0.17658812 -0.09817429 -0.37939578 -0.20838042 0.2566196 0.45307547
0.4274441 0.053157125 -0.17442308 -0.31527865 -0.7320441 0.65773225 0.061221946 0.49345252
-0.06485157 -0.5318128 -0.23881274 0.55535764 -0.43318865 -0.00029426522 -0.020983692 -0.19401743
0.20629112 0.090924546 -0.16505192 0.055689543 0.024903568 -0.3054581 -0.28723884 -0.09020376
-0.0674065 -0.0061697066 -0.08829049 -0.026473045 0.05065822 0.060373075 0.04461632 -0.08199085
-0.08136668 0.00075202435 -0.043693468 0.045444645 0.058681585 -0.0745435 -0.047694933 -0.05737602
-0.03256292 -0.0857166 -0.04194706 -0.0616714 0.05296018 0.0055944547 0.0017399788 -0.0071236566
0.0041294396 0.07599119 0.028640404 -0.031676263 0.0023666397 0.027054012 -0.04790019 0.028416753
0.029191464 -0.0732787 0.07739834 -0.07596845 0.0070992187 -0.023104414 -0.016704641 0.054757886
-0.08165014 -0.06892955 -0.0023085698 -0.010942653 0.035887115 0.026703656 -0.085369304 -0.040764894
0.055573814 0.06769828 0.057992063 0.07283329 -0.013575785 0.022242144 0.072113104 -0.0434061
-0.027473245 0.05908736 -0.0112837255 0.040727563 0.056614928 0.013414584 0.0084530115 0.07687699
0.08830767 -0.074932806 -0.051094245 0.04026427 0.069559954 0.015984938 -0.07717161 -0.08665578
-0.05576856 0.039622106 0.057790883 -0.03416237 0.061258413 -0.045903955 0.03149239 -0.008014075
0.054313175 -0.026560426 0.033174403 -0.07999907 -0.079904504 0.04099048 0.059002765 -0.01971975
-0.006095059 -0.060006745 -0.07340571 0.03785024 -0.054054227 -0.05340859 -0.03568795 0.047425546
-0.08619359 -0.022367746 0.03088899 -0.04094423 -0.04283911 0.06419995 -0.080026895 0.08642205
0.011857517 -0.022318117 0.03292971 0.037313156 -0.05700195 0.0051615313 -0.0839822 -0.01652173
0.0017834157 -0.03518911 0.072638325 0.022368252 0.019982629 0.07423908 0.023497902 -0.0142295435
-0.034165174 -0.05992911 0.019749127 0.006866589 -0.011469014 -0.036851812 0.054869227 0.048525624
00000000: d80e b5bd 13fb c5be 5fa3 8dbc 5608 6b3e
00000010: 4d4b 62bd d3b0 963e 0b4b c3be 8d68 55be
00000020: b740 4cbe 4f7a df3c 6e7b a03e c3ed 093f
00000030: 51e1 63bd cd3f f1be 2dac 3cbe 4f76 21bf
00000040: 654d 0a3d 1b11 5a3d 8421 e3bd 5bac 303e
00000050: dbc1 a7be 1213 adbe 3a20 78bd f678 eebe
00000060: 5d5b b03d e96e 633e 791e fbbd 7598 2c3d
00000070: 743b b1be 24a0 e33d 6ca8 efbe f04b c3bd
00000080: 9fce 08bf 3767 ff3d b77e 06bf 54c1 923e
00000090: 267f d0bc bc7b 3dbe d334 10bd 9d45 01bf
000000a0: 366c 9e3e 9810 4fbe 28de 713d 3dfc 5dbe
000000b0: f852 94be b9d0 54bf eda8 833e 8c45 4c3e
000000c0: d036 dd3a b8d9 403d 66f8 58be 4c44 93be
000000d0: ad4c c5bd 8a77 633d 1f9e 343e 50a7 dbbd
000000e0: 4b66 d73e 3804 9abd 9546 21bd 62af ecbe
000000f0: 8974 3d3d 7d98 54be 66a6 2dbe 7d1c abbe
00000100: 5ca5 b4be eb01 99be 5b94 c6be 5d01 85be
00000110: eb08 0b3f 49d3 e2be 88f3 a03e c068 893e
00000120: 85ce bfbe 1a8d 6c3e 1f0f d8bc 2d5f 4e3f
00000130: d80e d33d 6b14 e1be 2b1d eb3e 954f 5f3e
00000140: a9e5 ddbe a946 e8bd 516f 9dbe c87f 45be
00000150: 263d e6be 49da d5bd 5b66 3a3e 46b3 dc3e
00000160: a38e 91bd c674 9ebe dc2f bbbe cfd3 e5be
00000170: 02de 563e 23bd 593e 48e1 293e 6e0c 443f
00000180: ba36 8ebd 6c46 373e 84d3 34be 9a0f c9bd
00000190: 2a40 c2be ad61 55be a563 833e 82f9 e73e
000001a0: f4d9 da3e 49bb 593d f79b 32be 346c a1be
000001b0: 3e67 3bbf 2461 283f ddc3 7a3d cfa5 fc3e
000001c0: e6d0 84bd e224 08bf 548b 74be eb2b 0e3f
000001d0: e7ca ddbe 9c47 9ab9 fee5 abbc 81ac 46be
000001e0: fb3d 533e a636 ba3d 5f03 29be b81a 643d
000001f0: 9102 cc3c 0165 9cbe f810 93be c0bc b8bd
00000200: 6b0c 8abd 402b cabb a5d1 b4bd 00de d8bc
00000210: fe7e 4f3d c249 773d 9abf 363d d2ea a7bd
00000220: 93a3 a6bd 8023 453a ecf7 32bd 2a24 3a3d
00000230: 1a5c 703d 43aa 98bd c35b 43bd 1e03 6bbd
00000240: b260 05bd 2f8c afbd aed0 2bbd 269b 7cbd
00000250: c6ec 583d b051 b73b 0010 e43a 906d e9bb
00000260: 4050 873b 45a1 9b3d 489f ea3c f8be 01bd
00000270: a019 1b3b 60a0 dd3c fd32 44bd 40ca e83c
00000280: f022 ef3c 2513 96bd 0583 9e3d 5995 9bbd
00000290: 90a0 e83b 7845 bdbc 2cd8 88bc ce49 603d
000002a0: 3038 a7bd f02a 8dbd 604b 17bb d048 33bc
000002b0: 5efe 123d a0c1 da3c 1ad6 aebd 17f9 26bd
000002c0: 5ea1 633d 65a5 8a3d 1689 6d3d 9f29 953d
000002d0: f86c 5ebc 2835 b63c 09b0 933d 98ca 31bd
000002e0: 920f e1bc 9605 723d 60df 38bc f2d1 263d
000002f0: 0ee5 673d d8c8 5b3c 807e 0a3c af71 9d3d
00000300: a7da b43d 5f76 99bd 3348 51bd 26ec 243d
00000310: 7375 8e3d d8f2 823c 260c 9ebd 9678 b1bd
00000320: 936d 64bd ca4a 223d 22b6 6c3d d7ed 0bbd
00000330: 1aea 7a3d c905 3cbd 2afe 003d 784d 03bc
00000340: 7e77 5e3d 4095 d9bc e2e1 073d 8dd6 a3bd
00000350: f9a4 a3bd a2e5 273d e2ac 713d 508b a1bc
00000360: 10b9 c7bb a2c9 75bd bc55 96bd da08 1b3d
00000370: f767 5dbd f7c2 5abd 872d 12bd 4a41 423d
00000380: 4486 b0bd 903c b7bc e80a fd3c 23b5 27bd
00000390: 1078 2fbd 437b 833d 24e5 a3bd 0bfe b03d
000003a0: 0846 423c 7cd4 b6bc 4ee1 063d aed5 183d
000003b0: e07a 69bd 1022 a93b dcfe abbd 9458 87bc
000003c0: 80c1 e93a 7522 10bd 67c3 943d a03d b73c
000003d0: 9cb2 a33c a90a 983d ac7e c03c 0823 69bc
000003e0: c8f0 0bbd 3a78 75bd ecc8 a13c 2001 e13b
000003f0: 88e8 3bbc edf1 16bd 8ebe 603d cec2 463d

rnn.bias_hh_l1 f4 [512]
-0.18254584 -0.32878622 -0.09635335 0.27141455 -0.11519163 0.22135548 -0.5027384 -0.23157234
-0.18083335 0.043820627 0.24081346 0.593028 -0.14324099 -0.57565886 -0.1817833 -0.6043443
0.14053252 0.064896055 -0.124647364 0.21926893 -0.32335302 -0.3281576 -0.0035946725 -0.30633205
0.13687614 0.34336776 -0.17237243 0.071656175 -0.29208833 0.03360485 -0.3007375 -0.04931378
-0.4695471 0.10936263 -0.49777818 0.29253024 -0.12235123 -0.18254372 -0.084155716 -0.441815
0.18119943 -0.20993382 0.05243868 -0.16155453 -0.41973144 -0.83296853 0.21193184 0.15336922
-0.12481137 0.18837197 -0.11748767 -0.23405838 -0.13131292 0.047205858 0.32101938 -0.11720131
0.4465275 0.08474681 0.06734645 -0.49523005 0.021955136 -0.16927512 -0.090265535 -0.32478723
-0.28388894 -0.18573724 -0.36702493 -0.30020678 0.4608232 -0.47828808 0.38230222 0.26422778
-0.31197575 0.1213759 -0.05772309 0.74693483 0.06593392 -0.5358287 0.45614675 0.13759647
-0.34440765 -0.1519229 -0.30781737 -0.24131559 -0.34547395 -0.10693588 0.21418746 0.42918825
-0.1315167 -0.22841845 -0.3275779 -0.3611522 0.20347673 0.27703285 0.23262286 0.6137179
-0.08434287 0.2095904 -0.034024555 -0.1726402 -0.4269626 -0.067029886 0.25326934 0.3478942
0.48633677 -0.0030854403 -0.049654394 -0.16111428 -0.7069212 0.7270781 0.18825921 0.56126964
-0.16994242 -0.5411267 -0.1719434 0.60542256 -0.38279983 -0.10011328 0.07135835 -0.27755257
0.29287702 0.03964806 -0.10682124 0.086766176 0.09221494 -0.39594826 -0.39981633 -0.021521956
-0.057615876 -0.060277294 -0.060361903 -0.007848784 -0.013436839 -0.012561955 -0.059360147 0.005949147
-0.049568664 0.076746024 0.009645097 0.08477535 0.06483851 0.07996797 0.028677717 0.060192637
-0.014549978 0.015330829 0.043252625 0.08613602 0.087820135 0.070809714 -0.03602012 -0.07032539
-0.013480902 -0.03863085 -0.03472303 0.04479181 0.05088102 0.060162522 -0.028835766 0.039824493
0.08279783 -0.07349508 -0.034468133 0.018266052 0.014914967 0.087043725 0.02451402 0.05881215
-0.052091386 0.0099193975 0.001075916 0.016384378 0.050241895 0.06179411 -0.03647267 0.038767852
0.054450907 0.04885406 0.081683315 0.08373863 -0.04913254 -0.06844231 -0.008628324 -0.015838332
0.04687073 0.005278453 0.006429799 0.030276872 0.048044346 0.057302363 0.08379903 0.04712323
-0.06568506 -0.027239613 -0.013393909 -0.04243625 0.06885963 -0.029064499 0.03160139 -0.07394884
-0.07908521 -0.061658468 0.075537525 0.019180126 -0.036913686 0.055126734 -0.00597813 -0.031626385
-0.021790177 -0.066883 -0.053909454 0.08681179 -0.039661385 -0.08593153 -0.061846107 -0.08740583
0.06887122 -0.055594675 0.017680459 0.071510546 -0.039148554 -0.027398393 0.022925816 -0.054070886
-0.07979793 -0.023683518 0.074037485 -0.078958146 -0.057712257 0.044147603 0.04141035 0.0027941763
0.018140867 0.084630065 0.03765086 -0.044559997 -0.006700136 0.016106144 -0.085866086 -0.04614841
0.05768136 0.06938461 -0.05431814 0.04047648 0.040609084 0.015389524 -0.021322899 0.014351293
-0.013270438 -0.01835592 -0.024902858 -0.02299174 -0.07832449 0.08065485 0.06292368 0.011866264
00000000: 4ced 3abe ab56 a8be e854 c5bd d9f6 8a3e
00000010: 97e9 ebbd 03ab 623e 77b3 00bf 4d21 6dbe
00000020: 612c 39be 427d 333d ce97 763e afd0 173f
00000030: c4ad 12be 615e 13bf 6725 3abe 4fb6 1abf
00000040: c2e7 0f3e 39e8 843d 1e47 ffbd 0988 603e
00000050: 878e a5be 4604 a8be 9994 6bbb 8ed7 9cbe
00000060: 4229 0c3e e6cd af3e 6682 30be 79c0 923d
00000070: 9a8c 95be 3da5 093d 44fa 99be 3ffd 49bd
00000080: 7a68 f0be 84f9 df3d c8dc febe 86c6 953e
00000090: 4893 fabd beec 3abe d559 acbd 9335 e2be
000000a0: 588c 393e e4f8 56be f1c9 563d 8d6e 25be
000000b0: 0ae7 d6be 6d3d 55bf a904 593e d20c 1d3e
000000c0: 1b9d ffbd 95e4 403e 609d f0bd 00ad 6fbe
000000d0: e576 06be ee5a 413d a75c a43e 3e07 f0bd
000000e0: 419f e43e bc8f ad3d f0ec 893d cb8e fdbe
000000f0: 42db b33c 7556 2dbe 23dd b8bd 834a a6be
00000100: e459 91be e731 3ebe b1ea bbbe b4b4 99be
00000110: 05f1 eb3e 2de2 f4be 1ebd c33e dd48 873e
00000120: 49bb 9fbe ee93 f83d 0c6f 6cbd 1f37 3f3f
00000130: 5d08 873d 122c 09bf 118c e93e 17e6 0c3e
00000140: 3356 b0be ad91 1bbe 3d9a 9dbe 6f1b 77be
00000150: f6e1 b0be 3301 dbbd f553 5b3e 90be db3e
00000160: 50ac 06be 87e6 69be 4ab8 a7be f1e8 b8be
00000170: 345c 503e 40d7 8d3e b034 6e3e 9e1c 1d3f
00000180: f4bb acbd de9e 563e 555d 0bbd 98c8 30be
00000190: d89a dabe f746 89bd 85ac 813e 301f b23e
000001a0: 2201 f93e 1935 4abb 6862 4bbd 24fb 24be
000001b0: caf8 34bf ca21 3a3f 06c7 403e 5eaf 0f3f
000001c0: 6305 2ebe 4887 0abf ee11 30be f9fc 1a3f
000001d0: 57fe c3be 3108 cdbd 5424 923d 5f1b 8ebe
000001e0: faf3 953e 0166 223d 18c5 dabd 77b2 b13d
000001f0: 30db bc3d bbb9 cabe bab4 ccbe d04e b0bc
00000200: a0fe 6bbd 53e5 76bd 0b3e 77bd 3098 00bc
00000210: 3026 5cbc a8d0 4dbc a023 73bd 10f1 c23b
00000220: 8308 4bbd 052d 9d3d 7806 1e3c b39e ad3d
00000230: 0dca 843d 3fc6 a33d 88ed ea3c 8e8c 763d
00000240: 0863 6ebc 282e 7b3c aa29 313d 1568 b03d
00000250: 0bdb b33d af04 913d d589 13bd c206 90bd
00000260: 00df 5cbc 623b 1ebd bc39 0ebd 9e77 373d
00000270: 9e68 503d fa6c 763d fc38 ecbc 021f 233d
00000280: e991 a93d 9784 96bd 752e 0dbd b0a2 953c
00000290: e85d 743c fb43 b23d a0d1 c83c 02e5 703d
000002a0: c75d 55bd f884 223c c005 8d3a 8838 863c
000002b0: 72ca 4d3d d21b 7d3d 5e64 15bd 0acb 1e3d
000002c0: ea07 5f3d 321b 483d 9549 a73d 297f ab3d
000002d0: 343f 49bd 7b2b 8cbd d05d 0dbc 64bf 81bc
000002e0: 86fb 3f3d e0f6 ac3b 10b1 d23b 3407 f83c
000002f0: 26ca 443d e2b5 6a3d d39e ab3d 4a04 413d
00000300: e485 86bd 9c25 dfbc 2072 5bbc a2d1 2dbd
00000310: 4706 8d3d ac18 eebc 7670 013d 7d72 97bd
00000320: 6df7 a1bd 978d 7cbd 6bb3 9a3d a41f 9d3c
00000330: ce32 17bd 92cc 613d 30e4 c3bb ab8a 01bd
00000340: 5081 b2bc f4f9 88bd 29d0 5cbd 61ca b13d
00000350: fa73 22bd dffc afbd 5852 7dbd d401 b3bd
00000360: 5b0c 8d3d 3eb7 63bd 9cd6 903c 1f74 923d
00000370: 3c5a 20bd 9872 e0bc ecce bb3c 6f79 5dbd
00000380: 196d a3bd f003 c2bc f7a0 973d cfb4 a1bd
00000390: b063 6cbd 1ed4 343d e69d 293d 801e 373b
000003a0: 289c 943c 8752 ad3d ca37 1a3d 8b84 36bd
000003b0: d08c dbbb 08f1 833c 8fda afbd 1d06 3dbd
000003c0: 4a43 6c3d 8519 8e3d b37c 5ebd aaca 253d
000003d0: b655 263d 5824 7c3c 5cad aebc b021 6b3c
000003e0: 406c 59bc 285f 96bc 1401 ccbc 2c59 bcbc
000003f0: 9768 a0bd 5f2e a53d 21de 803d b86a 423c
