RNN_Model.pt (torch, 213076 bytes, 10 tensors)

rnn.weight_ih_l0 f4 [128, 15]
000000 90 b0 50 be 8e a7 97 3e fc 0d 12 3d da 42 67 be
       -0.20379853 0.29620022 0.035657868 -0.22584096
000010 54 e8 6f 3f e2 58 8a bf 63 e8 bc 3e f1 6e b4 3d
       0.9371388 -1.0808375 0.36896047 0.08810223
000020 f6 8b d8 bd 71 8e 5c 3f 14 05 76 3e 73 54 01 bf
       -0.105735704 0.8615485 0.24025375 -0.50519484
000030 40 66 d8 3b 1e be d1 be 2b 40 d1 be cb 5c fa be
       0.006603986 -0.4096536 -0.4086927 -0.4889892
000040 83 27 9c be 7a 53 30 3d 6c 66 a5 3e 06 ea 6b 3e
       -0.30498895 0.04304836 0.32304704 0.23038492
000050 28 37 a6 bc b8 62 a0 3f e8 0d a2 39 c1 82 93 bd
       -0.020289972 1.2530127 0.0003090941 -0.07202674
000060 a1 88 f4 3e f3 10 96 bd 90 3d 17 be e4 a6 ed bc
       0.4776049 -0.073274516 -0.14769578 -0.029010244
000070 7e c7 23 3d 82 fd c1 3e 47 a1 bc bf 24 c8 4f bc
       0.039985172 0.37888724 -1.4736718 -0.012681995
000080 ad 1e 9a 3d 11 43 79 3e cb 3f 8d be 46 85 dc 3d
       0.07525382 0.2434199 -0.27587733 0.107676074
000090 62 bf 98 3f c9 24 96 be bc e6 31 bd f5 8d 0f 3f
       1.1933405 -0.2932494 -0.043432936 0.56075984
0000a0 1a de ca 3b 86 28 31 bf 90 cf 7b 3c fd ff fc 3d
       0.0061910274 -0.6920246 0.015369311 0.123535134
0000b0 56 cd c0 bd 32 81 fd be ab df a5 be 5c 29 9e bc
       -0.09414165 -0.4951263 -0.32397208 -0.019306831
0000c0 ea 9f 4a be 65 7b fe 3d 91 0e 3f 3e 54 4c 7f 3e
       -0.19787565 0.124258794 0.186579 0.2493146
0000d0 5e 03 40 3f fe 1f 96 bd b7 75 7a 3e 0d 86 ff 3e
       0.7500514 -0.07330321 0.24458967 0.4990696
0000e0 33 66 a4 bf 13 74 96 3d 8a ed d3 bc 01 65 23 3c
       -1.2843689 0.07346358 -0.025870103 0.009972812
0000f0 73 ca 00 3f 85 0e 14 3f d7 9a aa 3d d5 21 6c 3d
       0.50308913 0.57834655 0.083303146 0.057649452
000100 83 c8 3a 3f 75 11 51 3f e7 a4 52 3f 9b a5 2a 40
       0.72962207 0.8166726 0.8228287 2.6663578
000110 27 9f 3c 3e ce ec 8e be 58 36 01 be a1 3f 75 bf
       0.18420087 -0.27915043 -0.12618387 -0.95800215
000120 cb 36 b2 bd dc c4 45 3e 95 53 f4 bc d8 50 37 3d
       -0.08701857 0.19313377 -0.029825011 0.044754833
000130 5e ea fe bd 48 f4 48 bd d4 bc b0 be 23 d2 8e bd
       -0.12447046 -0.04906109 -0.34519064 -0.06973674
000140 eb 48 25 be ae f3 47 be 20 8e e7 bf 98 43 61 be
       -0.16141097 -0.1952655 -1.8090248 -0.21998441
000150 95 40 70 be 3d b5 22 3d de 4c 6c bf aa 2b 09 bd
       -0.23462136 0.039723624 -0.9230479 -0.033488907
000160 24 97 c6 3e b5 3c 07 3e 38 ae 06 be 35 df a5 be
       0.38787186 0.13206752 -0.13152397 -0.32396856
000170 d8 01 02 3d 3a 57 2b be 28 e2 05 3f 88 30 ca be
       0.03174004 -0.16732493 0.5229821 -0.3949015
000180 19 48 99 3d 43 02 81 3e a1 07 24 bf 9d 44 f9 3e
       0.07484455 0.25197038 -0.6407414 0.4868516
000190 58 dc 47 3c 35 cc 7f 3e e6 70 4d 3d 45 7c 0e bf
       0.01219853 0.24980243 0.050156496 -0.5565837
0001a0 1d cb 26 3f 0a 66 d9 be b9 ec 5a bc c6 3b 07 3d
       0.65153676 -0.42460662 -0.013362103 0.03301599
0001b0 1a 66 8d 3d 19 01 cf be e7 22 3f 3e bd 29 aa 3f
       0.0690424 -0.40430525 0.18665658 1.3293988
0001c0 af ea 00 40 be 67 ca bd 22 46 c6 bd 1d 39 7c 3e
       2.014324 -0.098830685 -0.096813455 0.24631162
0001d0 8d 1c a0 3e 28 3d f9 3c 7f c5 11 3f e0 7d 16 bf
       0.31271783 0.03042467 0.5694198 -0.5878582
0001e0 be 8c 67 3c 3b 5a 2f 3e 70 9a ab 3c ea 68 50 3e
       0.014132677 0.17124264 0.020947665 0.20352522
0001f0 4e 83 5e bf c0 b4 e8 bd e8 96 aa 3f f6 8c 6d 3f
       -0.86919105 -0.113626 1.3327303 0.92793214
000200 d0 e4 a1 3f 16 2a 8a bc b2 c3 5c 3e 4d 97 33 be
       1.2647953 -0.016865771 0.21559027 -0.17538185
000210 7c d6 a1 bc 2f bc 87 be 76 e9 36 be da ab 91 be
       -0.019755594 -0.2651076 -0.17862496 -0.28451425
000220 97 d5 01 3e 81 fe 76 bd dd 3c 69 be 7b 82 e3 3e
       0.12679134 -0.060301308 -0.22777124 0.44435486
000230 59 f9 7d 3e da d6 18 3e f3 a0 2a be e7 a5 d9 3e
       0.2480215 0.1492571 -0.1666296 0.42509386
000240 3a 16 b8 bf a8 63 42 be c3 7a d8 bd b1 7c af bd
       -1.4381783 -0.18983328 -0.1057029 -0.08568705
000250 b4 0c 73 3f b3 43 82 3f 7f 75 40 bc 93 ea 43 3e
       0.9494126 1.017691 -0.011746763 0.19132452
000260 54 7b 6d bd b5 82 bd bc f6 81 92 bf a9 ee f7 3e
       -0.057978943 -0.023133615 -1.1445911 0.4842427
000270 f5 49 dc bf 29 c9 9b 3e 26 8b 29 bf c6 7a 91 3e
       -1.721007 0.3042691 -0.6622795 0.2841398
000280 5f df 90 be e7 55 90 3e 1c c4 fd bc 43 b6 55 3f
       -0.2829542 0.28190538 -0.030977301 0.83481234
000290 bc cd 32 3f 42 a4 06 3f ab 51 0a bd 36 28 21 3d
       0.69845176 0.5259439 -0.03376929 0.03934499
0002a0 36 61 53 3f 98 45 2a 3f e1 32 a7 be a0 74 1b be
       0.8257021 0.6651244 -0.32656005 -0.15181208
0002b0 88 07 22 3f 3d 1e ef 3e 34 c6 d7 be 4d f2 1c be
       0.6329274 0.46702757 -0.42143404 -0.15326805
0002c0 03 53 55 bf 35 08 85 bd 44 f6 27 3e 01 69 76 bf
       -0.8332979 -0.06495706 0.16402537 -0.96253973
0002d0 e0 e3 2d 3e 33 9e d2 3f 72 fa 24 3d 6b ff 0f be
       0.16981459 1.6454529 0.040277906 -0.14062278
0002e0 26 d4 00 3f 8c 31 e4 bf 5c 8e 3c 3e e2 ad 8f 3e
       0.5032371 -1.782762 0.18413681 0.2806235
0002f0 3e 00 c5 3e e2 01 1a be dc 96 69 be 4e 96 b2 3e
       0.38476747 -0.1503978 -0.22811455 0.34880298
000300 8d 63 ae bd 66 0a 82 3e b6 8d df 3d e6 0d b6 3e
       -0.085150816 0.25398558 0.10915701 0.3555748
000310 9f dc 40 bd 22 71 a1 bd 49 48 0d bd b7 89 48 bf
       -0.0470854 -0.078829065 -0.034492765 -0.78335136
000320 1f 86 bb be 15 d3 4e 3e 2d 54 c9 be 4a 0c c6 be
       -0.36625764 0.20197709 -0.39322034 -0.3868125
000330 61 21 28 3d 67 fd 40 bf 3c d7 1f be 6c 00 f5 3c
       0.041047458 -0.7538666 -0.15609449 0.029907428
000340 70 d8 4d 3f e8 49 90 3f c3 51 9b bf 16 e6 8b 3c
       0.8040838 1.1272554 -1.2134327 0.017077487
000350 e6 41 28 3d 81 39 7f 3d ff c5 36 3e d1 7d 20 bf
       0.04107847 0.0623107 0.17848967 -0.6269198
000360 2c 60 f9 be e2 42 d0 3e 9c 5a e4 3e 83 19 0c bf
       -0.48706186 0.40676028 0.4460038 -0.5472643
000370 e9 c1 92 be bb 99 7a bf 5a 7b 27 bd 16 9a 87 3e
       -0.28663567 -0.97890824 -0.04088912 0.26484746
000380 79 92 d6 3b f6 22 2a 3f cb bc 91 3e 16 1c 32 3d
       0.0065482226 0.66459596 0.2846435 0.043483816
000390 a8 8a ba be 3e 51 32 be 83 2d 9c bd 2c 2b f8 bc
       -0.3643391 -0.17413804 -0.07625868 -0.030294023
0003a0 b2 df b5 bd 3f 2b 47 3f c7 f5 73 3f 31 d5 f1 3e
       -0.08880557 0.77800363 0.952969 0.47232965
0003b0 b9 1a dd ba 96 1a 4e 3d 55 da a1 3e 24 5f c1 bd
       -0.0016868926 0.050318323 0.31611887 -0.09441975
0003c0 5d e6 7a 3f 04 bc e2 3e 60 3e 48 bb e6 7a d8 be
       0.98007756 0.4428407 -0.0030554757 -0.42281264
0003d0 0c c9 25 bd e3 36 0c 3c a8 dd 95 3e fc 9c 60 be
       -0.040474936 0.008558008 0.29270673 -0.21934885
0003e0 a7 5e 98 bf 52 f2 de be cb e3 df be ae 1a 13 bf
       -1.1903886 -0.4354425 -0.4372848 -0.57462585
0003f0 a9 c1 ac 3d 7b 9c 50 bf 5c 7c 04 bf ed dd 3a 3f
       0.08435375 -0.8148877 -0.5175226 0.7299488

rnn.weight_hh_l0 f4 [128, 128]
000000 5f cf 28 bd 59 a2 b0 3d 40 b6 9f 3a fa b3 4e 3d
       -0.04121339 0.08624715 0.0012185052 0.050464608
000010 3c 7f bc bc 6e 75 9e bd f0 5c 4c bc 00 d8 37 b8
       -0.023009889 -0.07737242 -0.01247333 -4.3831766e-05
000020 10 61 85 3c 43 ba 95 3d f8 7b b3 bd 00 e3 2e 3b
       0.016281635 0.07310917 -0.087638795 0.0026685596
000030 28 d3 b7 bc b9 30 09 bd 9c 18 cb bc 28 ee 0d bc
       -0.022439554 -0.03349373 -0.024792008 -0.008662738
000040 81 95 3c bd d6 43 03 bd e0 b5 3d 3b 00 ba 54 3c
       -0.046041016 -0.032047115 0.0028947517 0.012983799
000050 a2 59 d9 bc 1b 45 12 bd 28 ee e3 3c 89 98 86 bd
       -0.026531998 -0.035710435 0.027823523 -0.065720625
000060 f4 8a 82 3c ce 5c 0b 3d 4c 70 a1 bc b3 d7 a2 bd
       0.015935399 0.034024052 -0.019706868 -0.079512976
000070 42 83 11 bd e2 8a 5f 3d 70 45 01 bc 4c d8 89 bd
       -0.035525568 0.05457581 -0.00789009 -0.067307085
000080 a3 b4 a5 3d 9a 90 9a bd 4b e2 10 bd 46 cc 87 bd
       0.08091094 -0.07547112 -0.03537206 -0.06630759
000090 c4 57 6f bd de e3 e7 bc 62 26 7a bd 36 ac b2 bd
       -0.05843331 -0.028306898 -0.06107176 -0.08724253
0000a0 70 9a bb 3b 49 d3 67 bd 9f 22 86 3d 11 d9 a5 3d
       0.0057251975 -0.05659798 0.06549572 0.08098043
0000b0 d5 cd a4 3d ba a6 fc bc 16 6c 57 bd a4 c1 90 bd
       0.08047072 -0.03084122 -0.052593313 -0.07068184
0000c0 88 c1 de 3c ea 31 64 3d 66 97 63 bd 01 d0 80 3d
       0.027191892 0.055711664 -0.055564307 0.062896736
0000d0 ba 02 42 bd 42 4a d5 bc c1 54 94 3d b0 e2 b5 bb
       -0.04736588 -0.026036385 0.07242728 -0.005550705
0000e0 1c 72 b6 3c 9a 82 a5 bd 70 a6 3f bd 2a 82 6d 3d
       0.022271208 -0.08081551 -0.046789587 0.057985462
0000f0 40 18 f1 bb 66 e9 89 bd e8 1a f5 bc 3a 91 58 bd
       -0.007357627 -0.0673397 -0.029920056 -0.052872874
000100 ff e9 1e bd 78 64 6f 3c 40 b1 01 bd f7 8f 89 3d
       -0.038797375 0.014611356 -0.03166318 0.06716912
000110 6e 6e 1f 3d c1 92 86 3d d9 79 5a bd d7 59 71 bd
       0.038923673 0.0657096 -0.05333886 -0.05892357
000120 d0 66 ed 3c c8 d1 27 3c fd 35 43 bd 04 87 cd 3c
       0.028979689 0.010242887 -0.04765891 0.025088795
000130 c2 af 3f 3d 4c 1e 82 3c a4 33 83 bc a9 b2 82 3d
       0.046798475 0.015883587 -0.016015835 0.06381733
000140 0c 9d b3 bc 9e db 04 3d 84 a4 b4 3c d0 7e d9 3b
       -0.021925472 0.032436006 0.022051103 0.0066374317
000150 00 b9 85 bd 72 17 90 bd b0 da 19 bc 70 3c 8e bc
       -0.065294266 -0.07035722 -0.009390518 -0.017362803
000160 18 cb 0a bc c0 21 f7 3b 25 a3 b3 3d ea de 6a 3d
       -0.008471273 0.007541865 0.08771352 0.057341494
000170 45 bf 85 3d a4 e2 fd 3c 82 08 54 bd 28 90 91 bd
       0.065306224 0.03099186 -0.051765926 -0.07107574
000180 34 37 b8 3c a0 bb 60 bb 55 38 21 bd f6 97 80 bd
       0.02248726 -0.003429152 -0.039360363 -0.06278984
000190 ca 57 2e 3d c6 40 4b bd c9 fc 86 3d 77 70 63 bd
       0.04256419 -0.04962232 0.06591184 -0.055527177
0001a0 81 0c 9b 3d 62 3b 6c 3d f3 33 a3 bd f8 06 80 3c
       0.07570744 0.05767382 -0.07968893 0.015628323
0001b0 b2 07 75 3d 6c 77 a3 bd 40 0a 9d bc a6 38 1c 3d
       0.059821792 -0.07981762 -0.019169927 0.03813996
0001c0 32 5c 34 bd 4c 43 9d bc dd 85 61 bd 40 08 7c 3b
       -0.044033237 -0.019197129 -0.055059303 0.0038457066
0001d0 ac 97 a9 bd 0a d8 14 bd b5 74 3b bd 90 82 69 bd
       -0.08280882 -0.036338843 -0.045765597 -0.05700928
0001e0 e9 56 9d 3d cc f5 5b bd 06 73 6f 3d b9 98 9c 3d
       0.076825924 -0.053701207 0.058459304 0.07646317
0001f0 60 d7 78 bb 69 11 07 bd 80 53 ac bd dc d0 8e 3c
       -0.003797017 -0.032975588 -0.08414364 0.017433576
000200 96 32 2d 3d d8 08 8b 3c 1c e5 e7 3c 74 8d c1 bc
       0.04228457 0.01697199 0.02830749 -0.02362702
000210 dc 3e b2 bc 50 87 da bb 70 bc 3a bc 10 59 e0 3b
       -0.02175849 -0.0066689625 -0.011397466 0.0068465546
000220 5a ef ae bd 20 cb f2 bc e4 a6 74 bd 34 92 99 3c
       -0.085417464 -0.029637873 -0.05972947 0.018746473
000230 6e 03 4d 3d 6c 6d a8 bd d8 c7 77 bd 8a c1 00 3d
       0.0500521 -0.082239956 -0.06049332 0.031434573
000240 3e b6 22 3d aa af 2d 3d b0 81 d2 3b 81 d7 b3 3d
       0.03972458 0.042403854 0.0064241514 0.087813385
000250 02 d8 45 3d 1f 90 a3 3d ab 24 91 3d 47 ee 36 bd
       0.048301704 0.07986473 0.07087072 -0.044660833
000260 f0 5c a7 bd 7d c6 93 3d e8 61 00 3d 16 85 09 3d
       -0.08172023 0.07215593 0.03134337 0.033574186
000270 8e 7c 61 3d 36 58 2c 3d 38 d9 69 3c e9 25 85 bd
       0.055050425 0.042076312 0.01427298 -0.065013714
000280 b0 66 60 3c 0c c0 8a bc d9 0b 6d bd 1a 9c 31 3d
       0.013696358 -0.016937278 -0.057872627 0.04336176
000290 b0 28 87 bb 10 2c 97 3c 4e fa 1b 3d 35 6d a4 3d
       -0.0041247234 0.018453628 0.038080506 0.08028642
0002a0 a0 23 e9 bb d8 88 2e 3c b0 f2 60 bd 0a 19 1b bd
       -0.0071148425 0.010652743 -0.054918945 -0.037865676
0002b0 e2 b1 40 3d ce d6 0b bd c0 17 74 bb 28 0b 66 bc
       0.047044642 -0.0341404 -0.0037245601 -0.014040746
0002c0 bf 75 b1 3d 98 99 51 bd 1e af a9 bd 96 4e 59 3d
       0.086650364 -0.05117187 -0.08285354 0.05305346
0002d0 22 dd 80 bd bc 34 a3 3c 9b d2 ac 3d e2 cc 9f bd
       -0.06292178 0.019922607 0.08438607 -0.0780275
0002e0 12 bb 7a 3d 01 76 9e 3d e2 69 e8 bc e4 61 e2 3c
       0.06121356 0.07737351 -0.028370801 0.027634569
0002f0 80 fd 64 bb 10 5b e4 bb 40 e7 8a 3a eb 0c a2 3d
       -0.0034941137 -0.0069688633 0.0010597482 0.0791262
000300 79 c9 a6 bd 31 29 30 bd aa a5 81 bd b9 6d a4 bd
       -0.081438966 -0.043008033 -0.06330426 -0.080287404
000310 30 71 31 3c 58 31 76 3c 8c ee 77 bd 45 05 96 3d
       0.010830209 0.015026413 -0.06053023 0.07325224
000320 8e 14 31 3d 42 a3 46 3d 97 86 60 bd f0 83 1b 3c
       0.043232493 0.04849554 -0.054815855 0.009491906
000330 aa 7d 16 bd 10 f4 78 3c 63 23 9a bd 8a a9 ae bd
       -0.036740936 0.015194908 -0.07526281 -0.08528431
000340 00 7f 2c ba 88 10 38 3c a0 51 56 bb ae 58 7d 3d
       -0.0006580204 0.01123441 -0.003270246 0.06185215
000350 20 2c ef bb 94 5d 84 bc c7 ce a6 3d 21 c2 8b bd
       -0.0072989613 -0.016157903 0.081449084 -0.068241365
000360 30 dd 41 3c 10 76 ef 3b fa 92 59 bd 60 d2 20 bd
       0.01183252 0.0073077753 -0.053118683 -0.03926313
000370 a0 0a 82 3c 01 f5 89 3d 70 6a 09 bc 92 da 5c 3d
       0.015874207 0.06736184 -0.008387193 0.053919382
000380 28 7e b0 3c f8 55 c0 bc 37 cb 8b 3d 82 d5 72 3d
       0.021544531 -0.023478493 0.068258695 0.05928565
000390 da 00 3e 3d 10 cc c3 3c 51 78 93 3d 68 6f 13 3c
       0.04638753 0.023901016 0.07200683 0.008998729
0003a0 7c 15 a8 bd d0 95 88 3c 50 78 50 3c 60 be 1f bc
       -0.08207223 0.016672999 0.012723997 -0.009749979
0003b0 1c 19 e1 3c e0 4b 68 3b 58 3b 5c 3c d8 04 8a 3c
       0.027477793 0.0035445616 0.013441883 0.016848013
0003c0 df 10 8d bd f4 ce dd bc 08 2e 27 bc 06 d9 4f 3d
       -0.068879835 -0.027076222 -0.010203846 0.05074408
0003d0 f4 a8 7f bd a5 c4 3f bd 72 8c db bc 84 e0 d9 bc
       -0.062416986 -0.046818394 -0.026800368 -0.026596315
0003e0 cb 7f 81 3d 88 32 e8 3c 48 84 44 bd 4b 4c b3 bd
       0.06323203 0.028344408 -0.047977716 -0.08754786
0003f0 f0 5f 4c 3c 8c 89 bf bc 60 f8 06 bc e1 f7 73 bd
       0.012474045 -0.023381017 -0.008237928 -0.059562568

rnn.bias_ih_l0 f4 [128]
000000 30 21 8d be dd a1 b3 be ec 39 39 be 0c e8 28 3e
       -0.27564383 -0.3508443 -0.18088502 0.16494769
000010 f1 12 12 be cd 0e 08 bf 70 e7 06 be 65 fd 40 3e
       -0.14265038 -0.53147584 -0.13174224 0.18846662
000020 ac b9 1f bf 99 4d 9f bd ea cb 2d 3e 64 02 a2 3d
       -0.6239269 -0.077784725 0.16972318 0.07910612
000030 1b 5a 1b 3f 33 40 42 3e 71 2f d9 3e 06 8d 7c 3f
       0.60684365 0.18969803 0.42419007 0.98652685
000040 f0 d7 22 3f c0 38 0e 3e 17 c0 b5 bd c4 12 8d be
       0.63610744 0.13888836 -0.08874529 -0.2755338
000050 ff 5a da bd a3 e8 ca 3d a9 79 4a bf 1b 31 37 3f
       -0.106618874 0.09907653 -0.7909189 0.71559304
000060 00 e7 10 bf 96 93 02 bd 44 7a b0 3e e3 53 aa 3e
       -0.5660248 -0.03187903 0.3446828 0.33267125
000070 fa c7 6c 3e 3e f1 46 3f fd ee 8a 3d 59 76 22 3f
       0.2312316 0.77711856 0.06783865 0.63461834
000080 5f 86 82 bc 3b 31 3e be 03 cd 1a bf 4e 9d f2 3d
       -0.015933214 -0.18573467 -0.60469073 0.1184641
000090 b1 09 a8 be de 1c cb 3e d6 68 59 bf 6a 75 cf bc
       -0.32819894 0.3967046 -0.8492559 -0.025324542
0000a0 32 90 fc 3e 76 87 c2 be 8f 20 b0 3e 40 23 c3 bd
       0.49328762 -0.37993973 0.3439984 -0.09528208
0000b0 0e a2 c7 3e d0 ef aa be d3 a8 4a bc bd 07 6f 3e
       0.38990825 -0.33386087 -0.012369352 0.23342796
0000c0 cf b7 04 3f 7d 04 c6 3e 7f 6d 38 bf 57 19 8f be
       0.5184297 0.386753 -0.7204208 -0.2794902
0000d0 3d ca 37 3e 13 a5 9f 3d 6b f4 52 3e 7d 7e 00 3f
       0.17948242 0.07795157 0.2060105 0.50193006
0000e0 ca cb bf 3d 64 a5 0b 3f 79 36 83 be da ed fa 3d
       0.093650416 0.5454924 -0.25627497 0.12252398
0000f0 94 ba 8b be 2c fa 1f bf ce 2d 50 bf ed 30 07 bf
       -0.27290785 -0.62491107 -0.8131989 -0.5280903
000100 0f d5 7a be 48 a1 b4 3e 73 38 7c be ae 15 1a 3e
       -0.24495338 0.35279298 -0.24630909 0.15047333
000110 d2 78 f8 be 35 af 31 bf 62 3f f5 3d 0a a5 0d 3f
       -0.4852968 -0.6940797 0.1197498 0.55329955
000120 07 3e a2 3e 13 e8 6c 3d 7d 82 b6 3e 00 a4 a5 be
       0.31687948 0.05783851 0.3564643 -0.32351685
000130 e1 7e ed 3e 11 68 b9 3c 03 35 d6 be 94 7a 2e 3f
       0.46385863 0.02263263 -0.4183732 0.6815579
000140 cb 53 23 be 60 c8 5f 3e 86 4e 56 3e 96 ff cb be
       -0.15949933 0.21853781 0.20928392 -0.39843434
000150 a6 73 42 3f 6a 38 4b 3e 4a 23 b9 bd da 41 00 3e
       0.75957716 0.19845739 -0.09039934 0.1252512
000160 07 c5 01 bf ad f6 b8 be 05 a1 5a be 3d b5 6c 3e
       -0.50691265 -0.361257 -0.21350487 0.23116012
000170 68 33 d1 3c a3 d3 d2 bd 38 ae 98 be d8 69 a1 be
       0.025537208 -0.10294273 -0.29820418 -0.31526065
000180 a9 b6 a8 be 78 6d 39 3e f9 23 f7 3e d7 8e 37 bf
       -0.3295186 0.18108165 0.48269632 -0.7170233
000190 e5 f4 ed bc 91 ad 67 be 97 29 57 3e ba e2 9f 3e
       -0.029047439 -0.22624804 0.21011959 0.31227666
0001a0 24 23 ec be 01 13 f2 3b 79 29 24 3f 80 22 fc be
       -0.4612056 0.0073875193 0.6412578 -0.4924507
0001b0 30 97 27 3e c8 34 18 be 90 3d f2 bd 41 04 07 bf
       0.16366267 -0.14863884 -0.11828148 -0.52740866
0001c0 2e 64 2a 3e 27 87 2c 3f bc 45 07 bf a5 1f 37 bf
       0.16639778 0.67393726 -0.5284078 -0.7153266
0001d0 b4 fd 03 be 00 7b ce bd 0e 0b 08 3f 9b 90 a7 3d
       -0.12889749 -0.10082054 0.5314187 0.08181878
0001e0 9f eb c5 bc fd a8 81 3e 47 a0 ae 3e 2f 3e 09 bd
       -0.024160204 0.2532424 0.34106657 -0.03350657
0001f0 17 a7 8e bd f1 ea 55 be aa 41 f2 3e df ed cc be
       -0.069654636 -0.20890404 0.47315723 -0.4002523

rnn.bias_hh_l0 f4 [128]
000000 25 47 6d be f1 9f b7 be ae 18 a2 bd dc c9 a0 3e
       -0.2317167 -0.35864213 -0.079148635 0.31404006
000010 42 13 be bd 13 3a 04 bf 39 b5 a1 bd 38 42 88 3e
       -0.09281017 -0.51651114 -0.078958936 0.2661302
000020 d3 74 07 bf 79 3f 0e bd 03 b0 e9 3d 08 03 83 3c
       -0.52912635 -0.0347285 0.11410525 0.015992656
000030 33 b6 23 3f 1f 03 71 3e 75 f5 da 3e 13 62 81 3f
       0.6394989 0.23536347 0.42765394 1.0108055
000040 ce 8b 1b 3f aa e1 67 3d dd 13 fe bd 5a 24 9b be
       0.607602 0.056611694 -0.12406132 -0.30301172
000050 a8 96 04 be 38 58 0e 3e bf d7 44 bf 3d 69 34 3f
       -0.12948096 0.1390084 -0.768917 0.7047308
000060 ac cc 0a bf f5 bf 09 3e d2 1b b6 3e 69 22 a9 3e
       -0.54218554 0.13452132 0.355681 0.33034065
000070 4c 86 6e 3e ba 51 2f 3f b1 01 f3 3d fd 90 01 3f
       0.23293418 0.6848408 0.11865557 0.5061186
000080 3e 79 47 3d 7e fe 80 be 9d 32 f3 be 0a f2 16 3e
       0.04869961 -0.25194162 -0.47499552 0.14740768
000090 b3 ec a3 be 70 7c d8 3e 92 40 5e bf 04 a9 9c 3c
       -0.32016525 0.42282438 -0.86817276 0.019123562
0000a0 d1 fc ec 3e 64 9d f7 be b3 79 af 3e b9 13 59 be
       0.46286634 -0.48362267 0.34272537 -0.2119893
0000b0 96 c8 bc 3e 00 67 c7 be 10 77 b2 3d 75 f2 3f 3e
       0.36871785 -0.3894577 0.087141156 0.18744834
0000c0 01 a0 e5 3e 77 20 b3 3e 2b 1f 4f bf fd 58 12 be
       0.44848636 0.34985706 -0.80906934 -0.14291759
0000d0 a0 0d ac 3d 36 6f 2b 3e 72 00 96 3e bd fa d3 3e
       0.08401036 0.16741642 0.29297215 0.41402236
0000e0 9a 31 6a bc 5c 4f 2d 3f 1f fa 18 be 72 d1 98 3d
       -0.0142940525 0.6769922 -0.14939164 0.074618235
0000f0 f0 1c c2 be 92 8d 28 bf 68 82 3b bf c6 19 03 bf
       -0.37912703 -0.6584102 -0.7324586 -0.512112
000100 fe f0 84 be b4 30 b5 3e ae cf 2a be ae 12 80 3e
       -0.25965112 0.3538872 -0.16680786 0.2501425
000110 93 5e fa be 77 b9 2b bf cf 3a 3a 3e 23 cf 1b 3f
       -0.4890028 -0.6707987 0.18186496 0.6086294
000120 85 de c3 3e 31 b3 17 3e 9d 14 9b 3e cc 72 9c be
       0.38255706 0.1481445 0.30289164 -0.30556333
000130 1f a4 00 3f 77 62 06 be 43 84 d3 be 66 54 30 3f
       0.5025043 -0.13123499 -0.41311845 0.6887878
000140 0d 82 11 be 1f 3d 94 3e b4 da f8 3d ac a7 b8 be
       -0.14209767 0.28952882 0.12151089 -0.36065423
000150 84 b8 34 3f f8 b5 78 3e 97 d7 82 3b 10 59 c5 3d
       0.7059405 0.24288166 0.0039929855 0.09636128
000160 c0 bc bf be bd 6d e6 be 74 79 8d be 79 3c 1d 3e
       -0.37448692 -0.450056 -0.27631724 0.153551
000170 96 b1 98 bd 8f 50 2d be e0 92 ac be 28 b6 ae be
       -0.07455747 -0.16925262 -0.33705807 -0.3412335
000180 36 70 3c be 50 32 3b 3e 47 81 1c 3f fb f7 31 bf
       -0.1840218 0.18280911 0.6113476 -0.69519013
000190 90 83 50 3c e7 84 56 be 75 59 9c 3e 0a 6e c7 3e
       0.012726679 -0.20949136 0.30537 0.3895114
0001a0 d0 36 b4 be b9 7f de 3b f9 68 23 3f 47 d4 0e bf
       -0.3519807 0.006790128 0.6383205 -0.5579266
0001b0 8a a0 5a 3e e6 ca 1d be 1d 2b 0e be dd 21 22 bf
       0.21350303 -0.15409431 -0.13883634 -0.6333292
0001c0 3a 4e 1b 3e 4f eb 30 3f fa 73 08 bf 83 aa 3a bf
       0.1516656 0.6910905 -0.53301966 -0.7291643
0001d0 d0 03 1a be 0d cd 18 be 02 f2 0c 3f ed ff 0c bd
       -0.15040517 -0.1492197 0.55056775 -0.034423757
0001e0 c2 f9 2d 3d f8 c1 7e 3e 43 c9 a5 3e 52 d1 91 bd
       0.042474516 0.2487868 0.32380113 -0.07120003
0001f0 1e 3d 3c bc dd 96 3a be ec e7 f8 3e 37 7e 01 bf
       -0.011489181 -0.18221612 0.48614442 -0.50583214

rnn.weight_ih_l1 f4 [128, 128]
000000 ad 01 6b 39 16 f9 64 3d e0 d9 d4 3c e2 fa 7b 3b
       0.0002241197 0.05590161 0.025982797 0.0038449098
000010 0a 2f 43 3d 34 41 90 bd a6 99 19 bd dc 4a 93 bd
       0.04765228 -0.070436865 -0.037500046 -0.07192013
000020 7f 99 af 3d f2 f6 c0 bd c0 39 de 3d 5b b3 75 bc
       0.08574199 -0.09422101 0.10850859 -0.014996375
000030 ec ca 93 bb c1 f1 e4 bd c2 96 23 bd 4e ce 8c 3c
       -0.004510274 -0.111789234 -0.039938696 0.017188217
000040 68 f7 5b 3d 9d cf 70 bd 27 5c e5 3d ea e6 81 bd
       0.05370274 -0.058791745 0.11199217 -0.063428715
000050 a8 e3 8b 3b 04 34 ab ba f1 35 c0 3b 08 69 41 bc
       0.004269082 -0.0013061767 0.0058658053 -0.011804827
000060 7a dd df 3d f9 75 e3 3c 64 fc 25 bd 85 55 a3 bc
       0.10930915 0.027766215 -0.0405239 -0.01993824
000070 88 29 df 3d b2 c4 d5 bd 37 04 c3 3d 4b 63 7a bd
       0.10896593 -0.10437907 0.09522288 -0.06112985
000080 20 00 2b bb 60 c1 85 bc b6 c3 50 bd 26 a9 cd 3c
       -0.0026092604 -0.01632756 -0.050967894 0.02510507
000090 4f 49 9e bd 54 22 bf 3d 89 99 94 3c 83 67 07 3e
       -0.07728826 0.093327194 0.018139618 0.1322308
0000a0 bc 29 c7 bc fc 86 ca 3d ee 5d 83 bc 8c e3 4c bc
       -0.024311893 0.098890275 -0.016036 -0.012505423
0000b0 7a b1 11 bd 40 23 0a bc 65 18 86 3b 07 f4 42 3d
       -0.035569645 -0.008431256 0.0040922635 0.047596004
0000c0 11 d1 72 3d e9 d6 5a 3c fa 05 a3 bb cb 6d 84 bd
       0.059281413 0.013356903 -0.0049750777 -0.06466254
0000d0 5b 12 a0 bd 49 aa 4d bd 71 91 49 3d 03 de cb 3c
       -0.07816001 -0.050211225 0.04921097 0.024886137
0000e0 91 02 0f be 89 18 8c 3d 13 77 28 3d 5d 53 3d bb
       -0.13965823 0.06840617 0.041129183 -0.00288888
0000f0 b9 cd ae 3a 00 23 cb bd 3c c6 8a 3d fb 66 11 bd
       0.0013336457 -0.09918785 0.067760915 -0.0354986
000100 aa c5 b5 bc c7 a7 86 bb 5f e5 30 3d a3 c1 bd 3c
       -0.02218898 -0.004109356 0.043187495 0.023163622
000110 e7 98 45 3d f4 de 31 bd 32 6e 87 bd 6a 5e 2b bd
       0.048241522 -0.043425515 -0.06612815 -0.041838087
000120 d3 38 cd bd ac b7 23 bd 77 2c 78 3d 46 a1 d7 bc
       -0.10020604 -0.039970085 0.06058928 -0.026322018
000130 d1 ac eb bc 4d 2b 3f 3d 52 70 72 3d 61 ac ee 3c
       -0.028768929 0.046672154 0.05918915 0.029134931
000140 90 86 07 bb 84 a5 7f 3d 7c c2 c9 3b e5 cb 74 bd
       -0.002067957 0.062413707 0.0061572175 -0.05976476
000150 67 50 92 3b fe 6d 7f bd 5a 00 1e bd 22 6a 24 bd
       0.004465151 -0.062360756 -0.038574554 -0.04014028
000160 3c 75 53 3d 59 1c 35 bd ea 0c bc 3b 47 5f ed bb
       0.051625475 -0.044216488 0.005738844 -0.007244024
000170 e5 10 b3 bb ac 5d 4f bc da 9a 07 3d 54 3a 2d bc
       -0.0054646605 -0.01265661 0.033106662 -0.010572989
000180 bc 9a b2 3b cf 58 53 bd 95 b0 b1 bd 0f 9d 8b bd
       0.0054505747 -0.051598366 -0.086762585 -0.06817066
000190 17 a9 39 bc 25 b2 16 3d a0 4b 50 3d 10 27 27 bd
       -0.011331818 0.036790986 0.05085337 -0.040808737
0001a0 d3 39 9c 3d 0d fb 09 3d ba 8a b6 3c de 3a d9 3c
       0.076282166 0.033686686 0.022282947 0.026517328
0001b0 dc 36 f1 3c 1a 78 eb bd 66 72 2b 3e 16 1d 24 bd
       0.029445104 -0.11497517 0.16742858 -0.0400668
0001c0 18 60 99 bd fb fd c7 bc f1 48 cb bc c0 66 cd 3c
       -0.074890316 -0.0244131 -0.024815055 0.02507341
0001d0 44 ff e4 bc ed 09 df bc 4d 6c c8 3d ef 23 82 bc
       -0.027953751 -0.027226413 0.09786282 -0.015886275
0001e0 00 3a 30 3e 4a 30 18 3c 05 5e 2e 3d 9b 49 01 3d
       0.17209625 0.009288857 0.042570133 0.031564336
0001f0 89 b2 8b 3b be 59 34 3d 39 58 b9 3d 12 b5 f3 3b
       0.0042632264 0.044030897 0.0905003 0.0074373567
000200 b1 0b 9d 3d 79 68 0c 3e 8f e4 17 3c cd 5a 35 3e
       0.076682456 0.13711728 0.009270801 0.17710419
000210 54 90 f5 bd c0 73 51 3d 31 45 ac 3d 1b c4 8d bb
       -0.11990419 0.05113578 0.08411635 -0.004326356
000220 56 16 2b 3d 8e 32 f8 3c 9c f1 a0 3c 9c 63 01 3e
       0.041769348 0.030297544 0.019646458 0.12635654
000230 c5 ca 14 bc 26 17 96 bd 64 81 8d bb 7d e3 be 3c
       -0.009081547 -0.07328634 -0.004318403 0.023301834
000240 28 17 e4 3c 00 06 39 be 11 e0 8c bc 36 18 45 3d
       0.027843073 -0.18068695 -0.017196687 0.048118792
000250 c7 da fe bc b7 70 5d 3e 34 b5 8c 3d 3f 43 54 bd
       -0.03111018 0.21625029 0.06870499 -0.051821943
000260 4e b2 18 3e 55 d5 20 be 6d 55 51 3d 9c 5c 09 3c
       0.14911768 -0.1570638 0.05110686 0.008383896
000270 14 d6 2d 3d f7 9d a0 bc 76 d8 8c 3d 4a ef bd 3c
       0.04244049 -0.019606574 0.06877224 0.023185391
000280 d3 08 ab 3d bb 3b 5d bd 31 8d 71 39 69 4b 3f 3c
       0.083512925 -0.05401204 0.00023036149 0.011675694
000290 49 7d 4a be 32 ac 3c bd 54 c3 db 3d c7 38 9b 3d
       -0.19774355 -0.046062656 0.10730615 0.07579189
0002a0 78 aa 41 3c c0 e7 79 bd db 16 3c ba f7 a9 7c bd
       0.011820428 -0.06101203 -0.00071750366 -0.06168553
0002b0 19 18 3c 3e 0b 63 2d be cf a8 2b be eb ae 0b 3d
       0.18368568 -0.16932313 -0.16763614 0.03410236
0002c0 a8 71 1b 3e 56 99 7a bc 87 53 07 3c 33 d8 1c bd
       0.15180075 -0.015295347 0.008259661 -0.03829212
0002d0 72 5b a0 bd 3f 0d fe bd a1 75 86 3d 6e aa 11 bd
       -0.07829942 -0.1240487 0.06565405 -0.035562925
0002e0 31 4f 12 be 40 7d 37 3d 9b 33 95 3b d2 1d 70 bd
       -0.14288022 0.044797182 0.004553271 -0.05862219
0002f0 fd 2d 88 bd b9 0a 3b bb dc 06 15 be 27 1b 9d 3c
       -0.066493966 -0.0028540327 -0.14553398 0.019177986
000300 40 2e 67 3d f5 91 38 be fb 7c de bd 53 19 7e 3d
       0.05644059 -0.18024428 -0.10863682 0.06203587
000310 5e 5e 60 39 8d 0f 3c bd f6 93 8c 3d 3f 10 f5 3c
       0.00021397459 -0.045913268 0.06864159 0.029914973
000320 63 03 b4 3b 43 ce 3f 3d a4 f9 c7 bd 5a 3e 83 3d
       0.005493568 0.046827566 -0.09764412 0.06408377
000330 86 6f db 3c b9 88 18 be 48 6c b5 3b d7 2e 37 3d
       0.026786577 -0.14895906 0.00553659 0.044722404
000340 37 a4 a9 bd 77 b7 42 bd 05 f1 c9 3d 39 05 66 bd
       -0.082832746 -0.047538247 0.09860424 -0.056157324
000350 b3 06 bd 3d f6 c9 6a bd b9 b8 17 bc 15 d4 53 3d
       0.092297934 -0.05732151 -0.00926035 0.05171593
000360 cd 63 82 3d 6a 23 2a 3e 38 27 02 be 04 69 59 bd
       0.06366692 0.16615072 -0.12710273 -0.053078666
000370 14 da 39 bd e5 48 ae bd 94 63 68 bc 81 5a cf 3b
       -0.04537399 -0.08509997 -0.0141838975 0.0063279276
000380 39 1f 7a 3d 00 7f db 3d 3f 2d 08 bd 2c 9b a1 bd
       0.061064932 0.10717583 -0.033246275 -0.07890925
000390 b0 96 93 3d 90 e5 c3 3d f7 c9 c0 3b 98 1a c4 bb
       0.07206476 0.0956527 0.005883451 -0.0059846155
0003a0 53 92 eb 3d 4a e3 c1 3c 3e 38 1a be e1 b6 a0 3c
       0.115025185 0.02366795 -0.15060517 0.019618453
0003b0 ad 5b 4e bd 58 b2 4a 3b ab fd 2b be ef 3a 24 bd
       -0.050380398 0.0030929055 -0.16795985 -0.040095266
0003c0 e3 f9 7d bc 1b 5f 4a bd 98 0d a3 3d ca 54 0a 3e
       -0.015501472 -0.049407106 0.07961577 0.13508907
0003d0 f5 f1 0b be 3b 7e d4 bd d5 9b c6 bc ee a1 1e be
       -0.13666518 -0.10375639 -0.024244228 -0.15491459
0003e0 7a f8 18 3d 03 4b c8 3a 99 20 b0 bd 09 14 59 be
       0.03734634 0.0015281144 -0.085999675 -0.21199049
0003f0 1e 94 94 3d a6 73 6d 3d 1d a2 e1 bd 41 04 94 3d
       0.072548136 0.05797162 -0.11017249 0.07227374

rnn.weight_hh_l1 f4 [128, 128]
000000 d8 ae 28 bd 7c e7 98 bc 10 76 2b bd 3a 3e 8a bd
       -0.04118237 -0.018665068 -0.04186064 -0.0675015
000010 ac 1c 91 bd 24 8c a8 bc 1b 6d 4a bd 35 4f 8d 3d
       -0.07085547 -0.020574637 -0.049420457 0.06899873
000020 10 09 97 3b 86 63 43 3d c0 fe 7c 3c 7e 16 ac bd
       0.0046092346 0.047702335 0.0154415965 -0.084027275
000030 e3 fe 4d bd 18 43 0a 3d bf 12 95 bd 28 98 17 bc
       -0.050291907 0.03375539 -0.07278966 -0.0092525855
000040 ce ec 77 3d 8e a4 5d bd ee fa 1d 3d 7c fb 97 bd
       0.06052857 -0.05411201 0.038569383 -0.07421014
000050 fd da 29 bd 95 74 a9 3d 68 67 80 bc 9a 6d 43 3d
       -0.04146861 0.082741894 -0.015674308 0.047711946
000060 ef c5 9c 3d f8 de d1 3c 9c f4 49 bd 17 0b 33 bd
       0.0765494 0.025619015 -0.049305543 -0.043711748
000070 d8 ad 68 3c 2a 60 42 bd fa 3b 60 3d 3d 1a 01 bd
       0.014201604 -0.04745499 0.054744698 -0.031519163
000080 ce 50 61 3d c3 9d 82 3d 80 7f 67 3a 4c b9 3d bd
       0.055008702 0.06377747 0.00088309497 -0.04631929
000090 48 75 d3 bc 62 61 1f 3d e0 6d 7f bb 00 4c aa 3a
       -0.02581276 0.03891123 -0.0038975403 0.001299262
0000a0 56 45 4e 3d 0e 4f 73 3d 7b df 65 bd 0c 32 d8 3c
       0.050359093 0.059401564 -0.05612133 0.026391052
0000b0 d9 9c 82 3d b5 a1 86 3d f8 4f 89 bd 8c 97 38 bd
       0.063775726 0.06573812 -0.06704706 -0.0450664
0000c0 4f b1 90 3d a8 54 76 bc b0 eb b5 3c 37 27 8c 3d
       0.07065069 -0.015034832 0.022207111 0.06843417
0000d0 38 7f d5 3c c2 6f 56 bd 4a 72 4f 3d 2b 1e a5 bd
       0.02606164 -0.052352674 0.050646104 -0.08062395
0000e0 8c 62 92 bd b0 90 bf 3b 88 e2 0c 3d 24 58 cf bc
       -0.071477026 0.0058461055 0.034395725 -0.025310583
0000f0 02 ec 8d bd e0 a7 36 3b c4 20 d8 bc 26 2e 1a bd
       -0.069297805 0.0027871057 -0.026382811 -0.037641667
000100 30 05 9f bd 96 fc 15 3d 18 71 d6 bc 1e 7e f6 bc
       -0.07764661 0.036617838 -0.026176974 -0.030089434
000110 d0 a1 86 bb 46 af 40 3d ec 07 ba bc 69 ea 04 bd
       -0.004108645 0.047042154 -0.022708856 -0.032450113
000120 fc 86 fd bc c1 b4 09 bd ea 22 93 bd 73 2f 8e 3d
       -0.030948155 -0.033619646 -0.07184394 0.06942644
000130 70 85 9f bd d3 e0 97 3d 01 d6 97 3d 6e 5f 1f bd
       -0.07789123 0.07415929 0.07413865 -0.03890937
000140 a9 cc 98 3d 0b 2c 9c 3d a3 d4 aa 3d 37 1d a9 bd
       0.07460911 0.07625588 0.083413385 -0.082575254
000150 80 86 4b ba ed 2f a4 3d d0 7c 5b 3c 41 48 16 bd
       -0.00077638775 0.080169536 0.013396457 -0.03669
000160 42 eb 42 3d a0 ee f8 3c fa d1 78 3d a7 3d 9b 3d
       0.04758764 0.030387223 0.060747124 0.075801186
000170 31 f5 45 bd bb 9e a4 3d 90 90 f0 3c 99 98 9e 3d
       -0.048329536 0.08038088 0.029365808 0.077439494
000180 e0 fb 5f 3c c0 ab c8 bb b2 ee 8c bd d0 af 03 3c
       0.0136708915 -0.00612399 -0.06881465 0.008037522
000190 c4 29 c1 bc 9e a4 4a 3d 3e 88 80 bd 6f 7f 00 bd
       -0.023579486 0.049473397 -0.06275986 -0.03137153
0001a0 2a 0b 81 bd 33 c7 ab 3d 30 df 0c 3d e0 42 eb 3b
       -0.063009575 0.083876036 0.034392536 0.007179603
0001b0 60 44 14 bb ae 19 e2 bc 3e c8 33 bd 50 1f 93 bd
       -0.0022623762 -0.027600136 -0.043892138 -0.07183707
0001c0 37 54 87 3d 40 38 37 bc 10 0f b6 bb c6 cb 88 bd
       0.066078596 -0.011182845 -0.005555995 -0.06679492
0001d0 a0 03 6e bd 6e 47 50 bd 48 14 ed 3c e5 f8 86 bd
       -0.058108926 -0.05084937 0.028940335 -0.065904416
0001e0 6c 3d fa bc a3 78 92 3d 98 be 49 bd f2 a6 68 3d
       -0.030546866 0.07151916 -0.04925403 0.056799836
0001f0 40 66 fd 3b fd ab 3c bd 5b 8c 87 3d 98 4e 0c bd
       0.0077331364 -0.04606246 0.066185676 -0.03425464
000200 73 91 ae 3d b0 25 d1 3b e0 60 5c 3b 6d 0b 19 bd
       0.08523836 0.0063826665 0.0033627078 -0.037364412
000210 d0 77 84 bd ca 2a 55 bd 72 08 8f bd 00 fe 0c 3c
       -0.06468165 -0.05204276 -0.06984033 0.00860548
000220 95 3d 2b bd bd 78 94 3d 7c 96 a8 3c 8f 83 ad bd
       -0.041806776 0.072495915 0.020579569 -0.084723584
000230 00 2e 84 bb 47 5f a0 bd 10 5c 26 3c 9d a7 9f 3d
       -0.004033804 -0.07830673 0.010153785 0.077956416
000240 f2 5b 9d bd 20 e4 85 3b 99 cd 5c bd 31 61 59 bd
       -0.07683553 0.0040860325 -0.05390701 -0.053071205
000250 01 cf b0 3d df 76 9c bd 35 e6 91 bd 81 f4 76 bd
       0.08633233 -0.0763986 -0.07123987 -0.06029177
000260 f2 66 b3 bd 3c ef 91 bc 51 59 3d bd ac 7b b2 3c
       -0.0875987 -0.017814271 -0.046227757 0.021787487
000270 e9 c8 02 bd 04 97 86 bd c0 a9 22 3c ff ac 89 3d
       -0.031929884 -0.06571773 0.009928167 0.067224495
000280 c4 7c a3 3c 9b 64 b4 bd 28 cb 74 bc dc 06 8a 3c
       0.019956954 -0.088082515 -0.014941014 0.016848974
000290 b0 86 da bc 79 93 59 bd d4 52 3a bd 48 dc 94 3c
       -0.026675552 -0.053119157 -0.045489147 0.018171445
0002a0 89 74 8e bd 50 7d ad bc c6 ab 3a 3d af 51 30 bd
       -0.06955821 -0.021177918 0.045573972 -0.04304665
0002b0 92 25 47 bd 82 43 74 bd 22 d2 24 3d 2c 99 d7 bc
       -0.048619814 -0.059634693 0.04023946 -0.026318155
0002c0 99 2a 4f bd 69 fe 10 bd 37 08 80 bd 57 2a 97 bd
       -0.050577734 -0.035398874 -0.06251567 -0.073811226
0002d0 6f 67 b3 bd 34 05 02 3d c0 6a b8 ba c0 4b 4c 3c
       -0.08759963 0.031743243 -0.00140699 0.012469232
0002e0 cc 61 bd 3c 8c e1 db bc 90 0f bc 3b 61 16 b2 3d
       0.023117922 -0.026840948 0.00573916 0.08695675
0002f0 b4 42 9d bc f0 41 de 3b fa 02 25 3d 61 9f 93 3d
       -0.019196846 0.0067827627 0.04028604 0.072081335
000300 b3 fa 29 bd 18 c0 d2 3c 96 b3 16 3d 68 4b 42 bc
       -0.04149885 0.025726363 0.03679236 -0.011858799
000310 4b c8 94 3d ea 6e 09 bd 0d 3e 9c 3d 7a 9a 40 bd
       0.07264765 -0.03355304 0.07629023 -0.04702232
000320 40 d9 ea bb 49 58 84 bd b0 98 e4 3c 80 d9 50 3c
       -0.0071670115 -0.064621516 0.027904838 0.012747169
000330 1e d9 2f 3d 48 f7 bf 3c 6b 95 9e bd ac 4f d1 bc
       0.04293167 0.023433343 -0.07743343 -0.025550686
000340 64 00 ec 3c 00 b9 d6 bc 49 90 7a bd 5e 4d 7b bd
       0.02880878 -0.026211262 -0.061172757 -0.06135308
000350 50 42 de 3c 8e aa 75 3d 70 16 0a bc 9c dc fd 3c
       0.02713123 0.059977107 -0.008428201 0.030988984
000360 24 f6 d6 bc 21 f3 0c bd 00 1c 72 ba 00 fa f8 ba
       -0.026240416 -0.034411553 -0.00092357397 -0.0018995404
000370 cb cb 9d bd fd 62 9b bd ac 0d 49 bd bb 6d a1 3d
       -0.07704886 -0.0758724 -0.049085304 0.078822576
000380 ed 95 9c bd 7f 0a b2 3d 92 7f 2f 3d 28 26 9f bd
       -0.076457836 0.08693408 0.04284627 -0.077709496
000390 32 14 28 3d d5 80 8d 3d 51 1c 81 3d 2a da 9d bd
       0.041034885 0.069093384 0.06304229 -0.07707627
0003a0 38 06 b4 3c 20 0b 89 3b c3 f1 a8 bd 40 10 13 bb
       0.021975622 0.0041822344 -0.082492374 -0.0022440106
0003b0 c1 a7 93 3d 80 6b 16 bd e4 bd fe bc 8a 6e 1e 3d
       0.07209731 -0.036723614 -0.031096406 0.038679637
0003c0 b2 d6 57 3d 48 20 c5 bc d4 04 fe bc 12 fb 99 bd
       0.052694984 -0.024063244 -0.031008162 -0.07518591
0003d0 b0 8c 99 bb 48 53 7d bc 10 2b 9a bb d1 f2 ae 3d
       -0.0046859607 -0.01546175 -0.0047048405 0.08542407
0003e0 96 85 a1 bd bf e6 81 3d 46 44 40 3d 58 67 72 3c
       -0.078868076 0.063428394 0.04694011 0.014795147
0003f0 b6 11 65 bd 96 91 35 3d 96 26 e7 bc 15 5a 3d bd
       -0.055925094 0.044328295 -0.028216641 -0.046228487

rnn.bias_ih_l1 f4 [128]
000000 c2 2c c4 bc 20 26 06 be dc 2c 1e bb ec c7 e6 3d
       -0.023947123 -0.13100481 -0.0024135625 0.11268601
000010 59 e2 ae be e8 8f 10 bd bc fa 1d 3c e2 c7 f6 bc
       -0.34157065 -0.03529349 0.009642299 -0.030124608
000020 8c fc a5 bd aa 4d 9d 3d 93 66 5d 3d 5d 5d e8 bc
       -0.0810481 0.07680829 0.0540529 -0.028364832
000030 c6 96 97 3b 19 1c b8 be 66 37 d8 bd c2 29 9a 3c
       0.004626128 -0.35958937 -0.105574414 0.01881874
000040 3f 9c 12 be e7 15 f8 bd a8 1f 0c be e1 ae 65 3d
       -0.14317416 -0.121135525 -0.13683951 0.05607498
000050 8d ed db be f7 b2 36 3d 93 4f b4 3e 08 d3 0c 3e
       -0.42954674 0.044604268 0.3521696 0.13752377
000060 34 fb 1a bd f0 c3 79 3c 86 68 52 bd e4 b0 fc 3e
       -0.037837222 0.015244469 -0.051369213 0.49353707
000070 64 13 5c 3e 81 36 5e 3e 2a 64 13 3d 33 ef 78 3d
       0.21491772 0.21700479 0.035984196 0.060774993
000080 cf 4b 78 ba 42 fb ea bc 63 05 36 3e 4a ea 06 3d
       -0.00094717456 -0.028684262 0.17775492 0.03293828
000090 a9 e2 7f 3a a8 f8 85 b9 f7 7e 66 3d 88 bc bb 3d
       0.0009761253 -0.00025553 0.056273427 0.09166819
0000a0 6d 08 72 3e 2a 77 2d 3d ad d2 20 3f e2 2a 96 bd
       0.23636027 0.04234997 0.62821466 -0.07332398
0000b0 da 97 c0 be c2 d0 7a 3d 84 53 25 bd 8f fa e0 bc
       -0.37615854 0.061234243 -0.04036285 -0.027463226
0000c0 d9 72 6a 3e 2a 26 3a 3c b0 19 74 be f0 5c 43 3d
       0.22895373 0.011361638 -0.23837924 0.047696054
0000d0 18 f3 d1 bd c5 3e 7a be b9 4a 07 3d 77 50 40 3d
       -0.102514446 -0.24438007 0.033030245 0.046951737
0000e0 10 e9 af 3d c2 1b 1a bf 1d 1a 9c 3d 17 5d 04 bd
       0.08589375 -0.60198605 0.07622168 -0.03231534
0000f0 5b 71 dd 3d a2 11 a7 bd 78 0a 1c bd 6a 4b 65 be
       0.108126365 -0.0815766 -0.03809592 -0.2239205
000100 52 ed 7c be d8 b7 8a 3d 56 ad 55 bb e8 1e 74 bd
       -0.24699906 0.06773347 -0.0032604537 -0.059599787
000110 3a 74 8e be 9b a8 10 be 0e cd 62 3e f7 27 7b 3b
       -0.2782305 -0.14126818 0.22148535 0.0038323381
000120 e8 24 ff bb ab 9f 33 3f 57 f1 67 bc 7f 19 b0 3d
       -0.007786382 0.7016551 -0.014156661 0.08598613
000130 cb 22 16 be 3f 52 4e 3e 38 6d 90 bd 7d d6 11 be
       -0.1466171 0.20148562 -0.07052082 -0.14241977
000140 86 ff 12 be 79 5a 8e 3b 45 b0 03 be 68 59 0d 3e
       -0.14355287 0.0043442813 -0.1286021 0.13803637
000150 ae c8 32 3d 08 27 42 3e a0 44 87 3a 83 e8 d0 bd
       0.043648414 0.18960202 0.0010320134 -0.10200598
000160 45 ea de bd 75 0c 96 bc e7 11 70 3c 88 ad 0f 3d
       -0.10884527 -0.018316487 0.014652706 0.0350776
000170 f1 63 d4 bb 72 db c4 bd 0c b2 29 bf 12 56 95 3e
       -0.0064816405 -0.09612168 -0.662873 0.2916723
000180 ff d2 87 be 61 87 e0 3c 2c c7 e9 3e 01 d5 a0 be
       -0.26528165 0.027408304 0.4565977 -0.3141251
000190 f2 4c 49 3e 30 6b fe be e0 87 73 3d 34 bf e6 bd
       0.19658259 -0.49691153 0.059455752 -0.11266938
0001a0 97 0e af bc 1e ba 34 3e 38 5a de 3d 29 90 ca be
       -0.021369262 0.17649123 0.108570516 -0.3956311
0001b0 a6 13 2e bd 16 e4 02 be 19 1e b1 3e 94 6d 95 3d
       -0.042499207 -0.1278232 0.34593275 0.07296291
0001c0 59 a2 a0 3d 07 d0 be 3d fb 0f 8d be 4e c0 25 3e
       0.07843465 0.09317022 -0.27551255 0.1618664
0001d0 4a 8e 00 bd af 6a 0f 3d 72 31 88 be b6 b8 b2 be
       -0.031385697 0.03501385 -0.26600224 -0.34906548
0001e0 55 06 fb bd 3d cf 74 bd 12 6a 9e 3d 2c ed 01 3e
       -0.12257067 -0.05976795 0.07735075 0.1268813
0001f0 15 b5 4c 3e 42 82 88 3c 6b a8 2f 3d 46 57 6e bc
       0.19990952 0.016663674 0.042885225 -0.014547175

rnn.bias_hh_l1 f4 [128]
000000 3e 8f 82 3d 3c 01 16 bd 64 01 71 3d 86 bb d3 3d
       0.063749775 -0.03662227 0.058839217 0.10338502
000010 07 1e bb be 87 51 ef bc ea a7 d5 bd 45 33 7e bc
       -0.36546347 -0.02921368 -0.10432418 -0.015515153
000020 3b 91 53 be 37 1c 59 3d f7 7a 2d 3d ff c7 ae 3c
       -0.2066087 0.053005423 0.042353597 0.0213356
000030 17 13 ba 3d 3f 8e 60 be a7 0f 6c 3d b4 fd 85 bd
       0.09085672 -0.21929263 0.057632115 -0.06542531
000040 1c a2 bc bd b9 0a 43 bc 47 ac f3 bd 90 82 55 bc
       -0.092106074 -0.011904412 -0.11898094 -0.013031617
000050 47 84 f5 be 67 e0 53 3d 23 f2 b7 3e 4d a0 ce 3d
       -0.47952482 0.05172768 0.35926923 0.10089169
000060 45 fb 5c bd 32 e4 fc 3a fa 30 8d 3d 18 8b e4 3e
       -0.053950567 0.0019294082 0.06894107 0.4463737
000070 4b 61 dd 3d 21 dc 3e 3e 03 13 66 3d 48 de c6 bd
       0.10809573 0.1863866 0.056170475 -0.097103655
000080 4c 50 cf bb c3 79 fb bd 36 84 91 3e 5f 15 0e 3d
       -0.006326711 -0.122790836 0.2842118 0.03468835
000090 88 24 26 3d 4e bc 72 3c 6a 1a 14 3e 39 4b 11 3e
       0.040562183 0.014815403 0.14463201 0.14188851
0000a0 e1 59 bf 3e 7b dc 8a 3d 49 03 0d 3f 75 00 49 bd
       0.3737326 0.067803346 0.5508314 -0.0490727
0000b0 78 74 82 be 52 c1 d5 3d 18 9f 6c bd c7 5d 4c bd
       -0.25479484 0.104372635 -0.05776891 -0.04989412
0000c0 2e af 93 3e 84 11 de 3c 70 19 b3 be ea 7e 1e 3e
       0.2884459 0.027107961 -0.34980345 0.15478101
0000d0 ba 63 b8 bd 3b cc 92 be 00 ef 0f 3e 02 f6 fb bd
       -0.09003396 -0.2867144 0.14056015 -0.12302782
0000e0 6b a9 7a 3d ea cf 29 bf f5 08 e4 3c ab 5f 97 3d
       0.061196726 -0.66332877 0.027836302 0.07391294
0000f0 f0 ed 2b bd b4 38 9b 3d 6d 53 24 3d ad c2 81 be
       -0.04197496 0.07579175 0.040118624 -0.25343838
000100 38 82 77 be bb 59 37 bd a2 7e 82 bc dc 04 45 bd
       -0.24170768 -0.044763308 -0.015929524 -0.048100337
000110 42 1f a6 be 55 bb 84 be 5a d8 7a 3e c8 d7 cf 3d
       -0.32445723 -0.25924173 0.24496594 0.10148579
000120 33 62 2f bd 45 c2 13 3f 2d b7 2c 3d 9b c0 18 3c
       -0.04281826 0.57718307 0.042166878 0.0093232645
000130 79 6a 33 be 2f 4c 5b 3e 5a 83 2d bd 43 fd 9d be
       -0.17521085 0.2141578 -0.042361595 -0.30857286
000140 4b af 64 3a 43 ff c9 3c f0 b0 4d bc 2e d2 24 3e
       0.00087236305 0.024657851 -0.012554392 0.16095802
000150 83 ec 5b bd 62 7a 5d 3e fe 0f be 3d 4b 3b b1 bd
       -0.053692352 0.21628717 0.09280394 -0.08653887
000160 e1 82 7b 3c 2f ff 8b bc c8 d6 98 3b 30 64 dc 3c
       0.015351028 -0.017089454 0.004664276 0.026903242
000170 6f 3c 8c 3d cd 58 57 bd 4e 19 1e bf 90 a7 d9 3e
       0.06847464 -0.05257492 -0.6175736 0.42510653
000180 54 f7 73 be cc 7d 16 bb 40 95 ba 3e 6f 14 c5 be
       -0.23824817 -0.0022963164 0.36441994 -0.38492152
000190 e0 02 7e 3e 5d f8 04 bf ad 54 9f bc 74 c1 7e be
       0.24805784 -0.5194147 -0.019449556 -0.24878484
0001a0 1d 8d 18 3d 5b a2 8a 3e 5e 1c 14 3e 09 46 b9 be
       0.03724395 0.27076992 0.14463946 -0.36186245
0001b0 d1 c1 ec 3c 2b 7b 13 3b ff 6d 90 3e ec 26 a4 bc
       0.028901013 0.0022503834 0.2820892 -0.02003809
0001c0 7a 71 1b bd 7c bb 78 3b 88 e9 37 be e8 10 4f 3e
       -0.037950017 0.0037953546 -0.17960179 0.20221293
0001d0 32 5a 1b 3c 9c 29 92 bd 36 1d ad be a8 4b c8 be
       0.009481953 -0.071368426 -0.3381135 -0.3912022
0001e0 71 08 56 bd 61 10 25 bd f7 f4 77 bc a3 49 f0 3d
       -0.052254144 -0.040298823 -0.015134088 0.11732795
0001f0 b3 c7 09 3e a2 93 bf bb 3b 8e 76 bc ce a7 47 bd
       0.13455085 -0.0058464566 -0.015048559 -0.048744015

fc.weight f4 [6, 128]
000000 aa d2 d3 be 4c 70 24 bd cc 4c 12 bf df 09 4c bf
       -0.4137166 -0.040146157 -0.5714843 -0.7970256
000010 17 c4 5e 3f 3b 7f 46 3f 50 4a cb 3d 66 20 0f bf
       0.8701796 0.7753789 0.09926283 -0.5590881
000020 ce 85 8c 3e 33 32 42 be 2c 97 bf be a5 75 dd be
       0.27445835 -0.18964462 -0.37420022 -0.43253818
000030 b1 8b 1b bf 52 cf d7 3f da b3 b1 3e b6 7c 07 3f
       -0.6076003 1.6860144 0.34707528 0.5292467
000040 9a 41 c1 3f c4 73 60 bf a4 e0 82 3f 36 46 0f 3e
       1.5098145 -0.87676644 1.0224805 0.13991627
000050 4e ed 0c 40 4a 5c 4b bf 18 da 4c bf 82 89 de bf
       2.201984 -0.79437697 -0.80020285 -1.7385714
000060 f1 4e ad 3e e0 9a 93 bf 04 30 b7 be a3 f4 99 bf
       0.3384929 -1.1531639 -0.3577882 -1.2027782
000070 f5 c5 3e c0 ae 1d 57 bf fa cd 76 bd b8 8a e9 bd
       -2.9808323 -0.8402966 -0.06025503 -0.114034116
000080 4b ba 75 3f 0e 2a 38 3f f4 84 b6 bf e9 f5 12 b9
       0.95987386 0.7193917 -1.4259324 -0.00014015254
000090 aa c8 f3 3d 67 76 bd 3e e8 e7 79 bf e0 df ba be
       0.11903508 0.37004396 -0.97619486 -0.36498928
0000a0 4a 68 86 bf 5f 87 73 be 3c b6 52 bf fd 43 66 3e
       -1.0500576 -0.23782109 -0.8230932 0.22486873
0000b0 9a 7f b0 3f 79 2c 26 be 70 87 ae be 39 5a 26 40
       1.3788941 -0.16227902 -0.34087706 2.5992568
0000c0 27 7e a9 bf 51 1a f7 be 97 c6 53 3e c4 41 96 bf
       -1.3241624 -0.48262265 0.20681225 -1.173882
0000d0 d3 fc 80 3f 1f 01 bb 3f b0 5a b9 3e 8f 33 48 3f
       1.0077156 1.4609717 0.36202002 0.7820367
0000e0 e9 28 0e 3d c0 e2 ff 3e 70 2c 5c 3d 49 ad bf bd
       0.034706984 0.49977684 0.053753316 -0.093592234
0000f0 8d 5a 44 bd d0 4c f2 be 6d ef 42 bf 06 47 1c 3f
       -0.04793792 -0.47324228 -0.76146585 0.61045873
000100 20 57 a4 3e c8 91 cc 3f e1 dc 51 3e 97 41 a6 bd
       0.3209772 1.5981989 0.20494415 -0.08117979
000110 aa 50 aa 3f 8c 17 95 be e5 29 94 bf 97 9b b8 3e
       1.3305867 -0.29119527 -1.1575285 0.36056206
000120 26 c1 bc 3e 22 49 88 bf 08 98 dc bd 04 bf 8a 3e
       0.3686611 -1.0647318 -0.10771185 0.27098858
000130 de f4 ae 3d 93 4f 51 bf 00 9e 5c bf 2b 56 c5 3f
       0.085427985 -0.81762046 -0.8617859 1.5416921
000140 5a f2 d4 be ad e7 27 c0 49 82 0e bf 17 b2 2f bf
       -0.4159115 -2.6235154 -0.5566755 -0.6863112
000150 fd 1d d3 3e cf e1 27 bd aa 23 39 3e 2e 32 5d be
       0.41233817 -0.040986832 0.18080011 -0.21601173
000160 14 59 31 3e 5a 7a 98 3e 1b a1 47 bf e3 a3 a4 bd
       0.17319137 0.29780847 -0.779802 -0.080390714
000170 f1 1e 46 3f 2e 21 97 be 8f 72 3e 3f 54 e4 0b bf
       0.7739096 -0.29517502 0.7439355 -0.54645276
000180 b4 b2 53 3e ce 51 05 3e 83 4a 6d bf 75 dd 05 40
       0.20673639 0.13019487 -0.9269182 2.0916417
000190 77 52 fa bf 7b c4 e0 3f 51 14 51 3f ba 82 6d 40
       -1.9556416 1.7559961 0.81671625 3.711104
0001a0 50 d8 29 bf 45 26 aa 3e d1 c2 07 3f b1 c4 20 3f
       -0.6634569 0.33232322 0.5303164 0.6280013
0001b0 40 06 0b bf 8a c7 5e bd 18 7a 78 bf 16 e2 69 3e
       -0.5430641 -0.054389514 -0.970613 0.22840151
0001c0 47 af 90 3c b2 54 53 bf f2 b0 60 3f 03 ed c6 bd
       0.017661704 -0.8255111 0.8777 -0.09713175
0001d0 e0 e6 08 be 45 3c 91 3c e8 2a 75 3f 64 b8 df 3f
       -0.13369322 0.017728934 0.95768595 1.7478147
0001e0 9a 7b 63 bf df 03 3c be e2 da 44 3f ef 07 38 3f
       -0.88860476 -0.18360852 0.7689649 0.71887106
0001f0 fd 00 5f bf ee e0 08 3f dd 15 a7 3e 02 22 02 bf
       -0.87110883 0.53468215 0.32633868 -0.5083314
000200 12 03 99 bc f8 f6 99 bc 1d 85 a5 3b d6 b0 96 bb
       -0.018678222 -0.018794522 0.0050512687 -0.004598717
000210 93 83 de be 29 72 02 bd 3a 6c 42 bb 15 b1 22 3b
       -0.43459758 -0.031847153 -0.002966656 0.0024824787
000220 e6 ea 4e 3c 27 99 f4 3c f0 22 a2 bc 05 2d e1 3b
       0.012629246 0.029858185 -0.01979205 0.006871822
000230 59 45 50 3d 40 87 41 3e b1 e1 69 bc 5b c5 3c 3a
       0.050847385 0.1889925 -0.014275 0.0007201039
000240 8d 0f a9 be 2c 06 ed be e8 55 b7 3d bc 5f 9d 3c
       -0.33019677 -0.4629377 0.08951932 0.019210689
000250 5f a9 f9 3d 6c 9e cc bc 7d af a6 3e e4 b8 3e be
       0.12190508 -0.024977885 0.32555762 -0.18625218
000260 aa de c3 bc 53 43 7e bd 6f 16 9a bc e2 0a 25 3e
       -0.023909885 -0.062075924 -0.018809525 0.16117433
000270 dc e1 ad be 5d 92 b4 3e 8d 7a 62 bc 0d fb cf bc
       -0.3396138 0.35267916 -0.013823164 -0.025388265
000280 af 43 05 bd 1b d9 18 3c 78 30 8b bd 9d c0 f6 3b
       -0.03253525 0.009329106 -0.06796354 0.0075302855
000290 f2 47 cd ba 2d 73 25 3d cf 06 86 bd b2 f7 b0 be
       -0.00156617 0.040393043 -0.065442674 -0.34563977
0002a0 98 f9 b1 be 16 eb 89 3d 78 29 18 3d 3f a5 5d bb
       -0.34760737 0.06734292 0.037148923 -0.0033820418
0002b0 2c 04 04 3e 90 e0 81 3c f6 5d 94 3b 3e d7 ad be
       0.12892216 0.01585415 0.0045278026 -0.3395328
0002c0 a1 2c a0 3e 1a 73 20 bb 52 b5 b5 be 24 9a 0f 3e
       0.3128405 -0.0024482668 -0.354899 0.14023644
0002d0 e0 f0 ae 3e 94 c1 d9 be 01 a1 17 be d3 32 1a 3c
       0.34168148 -0.425305 -0.14807512 0.0094115315
0002e0 8d 98 2c bd c3 13 00 bf 89 ed 91 3c 4c 7e 11 bd
       -0.04213767 -0.50030154 0.01781346 -0.035520837
0002f0 f7 c0 a0 3c e0 26 8a bc f8 52 20 3c 14 34 c2 3e
       0.019623263 -0.01686424 0.009785406 0.37930357
000300 a9 d0 0c bf a3 aa 8b bd e5 73 18 3d f2 27 56 3e
       -0.5500589 -0.06819656 0.0372199 0.20913675
000310 c8 cb 83 3e 32 72 b3 be d7 cc 93 bb ab ad 0d 39
       0.2574141 -0.35048062 -0.004510503 0.00013511504
000320 f5 e0 46 bd a3 5a 47 3e c1 4c 00 bc 2d e0 38 be
       -0.04855438 0.19468169 -0.0078308 -0.18054266
000330 32 ed fa 3e 85 0f 27 bd 55 7d c7 be 1d 83 01 3e
       0.4900909 -0.040786285 -0.38962808 0.12647672
000340 38 ce 6c 3c 3d de ae 3d b7 65 c2 3e 88 f9 c6 3e
       0.014453463 0.08538482 0.37968227 0.38862252
000350 e7 27 62 bb 2f 3c 9a 3e 7e 8d 88 be e0 19 93 bd
       -0.0034508647 0.3012404 -0.2667045 -0.0718267
000360 6e 27 e1 bc 27 8c 9a 3c b3 26 87 3e 78 4d e5 3c
       -0.027484622 0.018865658 0.26396713 0.027991042
000370 2a bf bb 3e a9 5e da be 30 5f ac be 5f bf 03 3f
       0.36669284 -0.42650345 -0.33666372 0.51463884
000380 60 7c a1 3e c1 e8 06 3d a5 90 9f be 06 1b ed be
       0.31540203 0.032936815 -0.31165043 -0.4630968
000390 04 1c 75 3e df 14 e0 3e f7 b3 37 bc 73 8f 8b 3d
       0.23936468 0.43765923 -0.011212341 0.0681447
0003a0 2a c9 fb ba 1c ff 58 bd c2 cd 2f 3e 30 f4 fc 3d
       -0.0019209732 -0.052977666 0.17168334 0.123512626
0003b0 b8 33 2d bd 0b e9 4d bb 6c 15 88 bc e8 07 20 3c
       -0.04228565 -0.0031419422 -0.016611777 0.00976751
0003c0 bd 0d 2f bc 49 f4 b8 bb 98 9c 67 bb ab b9 b0 3e
       -0.010684428 -0.0056443554 -0.003534114 0.34516653
0003d0 55 73 aa bc 0d 69 1e 3d a2 b6 48 3e 87 2c 6b 3e
       -0.020806948 0.038674403 0.19600919 0.22966205
0003e0 4e 4b 60 3e eb c0 68 3d ad 7e 8e bd 79 05 c0 bc
       0.21903726 0.056824606 -0.06957755 -0.02344011
0003f0 14 02 e8 3e e9 9c a1 3b fd de 90 3c 5e 19 8c 3d
       0.45314085 0.004932035 0.017684454 0.06840776

fc.bias f4 [6]
000000 dc 8e 9b c0 68 1e 6f be c8 ad 96 bc 25 4a 5f 3e
       -4.861189 -0.23351443 -0.018393412 0.21805628
000010 bf 00 98 3d 6d e8 ed bd
       0.07422017 -0.11616597
